…
2025-07-11 09:45:10,930 - INFO - Done! Took 00:01:00.07
2025-07-11 09:45:10,951 - INFO - [*] Loaded dataset 'CLUSTER' from 'PyG-GNNBenchmarkDataset'
2025-07-11 09:45:11,265 - INFO - Created model type: <class 'torch_geometric.graphgym.model_builder.GraphGymModule'>
2025-07-11 09:45:11,265 - INFO - Inner model type: <class 'graphgps.network.uniform_gt_model_edge.UNIFORM_GTModelEdge'>
2025-07-11 09:45:11,265 - INFO - Inner model has get_darts_model: False
2025-07-11 09:45:11,270 - INFO - GraphGymModule(
  (model): UNIFORM_GTModelEdge(
    (encoder): FeatureEncoder(
      (node_encoder): LapPENodeEncoder(
        (linear_x): Linear(in_features=7, out_features=32, bias=True)
        (linear_A): Linear(in_features=2, out_features=32, bias=True)
        (pe_encoder): Sequential(
          (0): ReLU()
          (1): Linear(in_features=32, out_features=16, bias=True)
          (2): ReLU()
        )
      )
      (edge_encoder): DummyEdgeEncoder(
        (encoder): Embedding(1, 48)
      )
    )
    (layers): Sequential(
      (0): UNIFORMGTLayer(
        summary: dim_h=48, global_model_type=SparseTransformer, heads=8
        (edge_processor): Sequential(
          (0): Linear(in_features=48, out_features=48, bias=True)
          (1): ReLU()
          (2): Dropout(p=0.0, inplace=False)
          (3): Linear(in_features=48, out_features=48, bias=True)
          (4): Dropout(p=0.0, inplace=False)
        )
        (kv_model): GatedGCNLayer()
        (self_attn): SparseGraphAttention(
          (W_k): Linear(in_features=48, out_features=48, bias=True)
          (W_v): Linear(in_features=48, out_features=48, bias=True)
          (W_o): Linear(in_features=48, out_features=48, bias=True)
        )
        (norm1_local): BatchNorm1d(48, eps=1e-05, momentum=0.1, affine=True, track_running_stats=True)
        (norm1_kv): BatchNorm1d(48, eps=1e-05, momentum=0.1, affine=True, track_running_stats=True)
        (norm1_attn): BatchNorm1d(48, eps=1e-05, momentum=0.1, affine=True, track_running_stats=True)
        (dropout_local): Dropout(p=0.0, inplace=False)
        (dropout_kv): Dropout(p=0.0, inplace=False)
        (dropout_attn): Dropout(p=0.0, inplace=False)
        (ff_linear1): Linear(in_features=48, out_features=96, bias=True)
        (ff_linear2): Linear(in_features=96, out_features=48, bias=True)
        (act_fn_ff): ReLU()
        (norm2): BatchNorm1d(48, eps=1e-05, momentum=0.1, affine=True, track_running_stats=True)
        (ff_dropout1): Dropout(p=0.0, inplace=False)
        (ff_dropout2): Dropout(p=0.0, inplace=False)
      )
      (1): UNIFORMGTLayer(
        summary: dim_h=48, global_model_type=SparseTransformer, heads=8
        (edge_processor): Sequential(
          (0): Linear(in_features=48, out_features=48, bias=True)
          (1): ReLU()
          (2): Dropout(p=0.0, inplace=False)
          (3): Linear(in_features=48, out_features=48, bias=True)
          (4): Dropout(p=0.0, inplace=False)
        )
        (kv_model): GatedGCNLayer()
        (self_attn): SparseGraphAttention(
          (W_k): Linear(in_features=48, out_features=48, bias=True)
          (W_v): Linear(in_features=48, out_features=48, bias=True)
          (W_o): Linear(in_features=48, out_features=48, bias=True)
        )
        (norm1_local): BatchNorm1d(48, eps=1e-05, momentum=0.1, affine=True, track_running_stats=True)
        (norm1_kv): BatchNorm1d(48, eps=1e-05, momentum=0.1, affine=True, track_running_stats=True)
        (norm1_attn): BatchNorm1d(48, eps=1e-05, momentum=0.1, affine=True, track_running_stats=True)
        (dropout_local): Dropout(p=0.0, inplace=False)
        (dropout_kv): Dropout(p=0.0, inplace=False)
        (dropout_attn): Dropout(p=0.0, inplace=False)
        (ff_linear1): Linear(in_features=48, out_features=96, bias=True)
        (ff_linear2): Linear(in_features=96, out_features=48, bias=True)
        (act_fn_ff): ReLU()
        (norm2): BatchNorm1d(48, eps=1e-05, momentum=0.1, affine=True, track_running_stats=True)
        (ff_dropout1): Dropout(p=0.0, inplace=False)
        (ff_dropout2): Dropout(p=0.0, inplace=False)
      )
      (2): UNIFORMGTLayer(
        summary: dim_h=48, global_model_type=SparseTransformer, heads=8
        (edge_processor): Sequential(
          (0): Linear(in_features=48, out_features=48, bias=True)
          (1): ReLU()
          (2): Dropout(p=0.0, inplace=False)
          (3): Linear(in_features=48, out_features=48, bias=True)
          (4): Dropout(p=0.0, inplace=False)
        )
        (kv_model): GatedGCNLayer()
        (self_attn): SparseGraphAttention(
          (W_k): Linear(in_features=48, out_features=48, bias=True)
          (W_v): Linear(in_features=48, out_features=48, bias=True)
          (W_o): Linear(in_features=48, out_features=48, bias=True)
        )
        (norm1_local): BatchNorm1d(48, eps=1e-05, momentum=0.1, affine=True, track_running_stats=True)
        (norm1_kv): BatchNorm1d(48, eps=1e-05, momentum=0.1, affine=True, track_running_stats=True)
        (norm1_attn): BatchNorm1d(48, eps=1e-05, momentum=0.1, affine=True, track_running_stats=True)
        (dropout_local): Dropout(p=0.0, inplace=False)
        (dropout_kv): Dropout(p=0.0, inplace=False)
        (dropout_attn): Dropout(p=0.0, inplace=False)
        (ff_linear1): Linear(in_features=48, out_features=96, bias=True)
        (ff_linear2): Linear(in_features=96, out_features=48, bias=True)
        (act_fn_ff): ReLU()
        (norm2): BatchNorm1d(48, eps=1e-05, momentum=0.1, affine=True, track_running_stats=True)
        (ff_dropout1): Dropout(p=0.0, inplace=False)
        (ff_dropout2): Dropout(p=0.0, inplace=False)
      )
      (3): UNIFORMGTLayer(
        summary: dim_h=48, global_model_type=SparseTransformer, heads=8
        (edge_processor): Sequential(
          (0): Linear(in_features=48, out_features=48, bias=True)
          (1): ReLU()
          (2): Dropout(p=0.0, inplace=False)
          (3): Linear(in_features=48, out_features=48, bias=True)
          (4): Dropout(p=0.0, inplace=False)
        )
        (kv_model): GatedGCNLayer()
        (self_attn): SparseGraphAttention(
          (W_k): Linear(in_features=48, out_features=48, bias=True)
          (W_v): Linear(in_features=48, out_features=48, bias=True)
          (W_o): Linear(in_features=48, out_features=48, bias=True)
        )
        (norm1_local): BatchNorm1d(48, eps=1e-05, momentum=0.1, affine=True, track_running_stats=True)
        (norm1_kv): BatchNorm1d(48, eps=1e-05, momentum=0.1, affine=True, track_running_stats=True)
        (norm1_attn): BatchNorm1d(48, eps=1e-05, momentum=0.1, affine=True, track_running_stats=True)
        (dropout_local): Dropout(p=0.0, inplace=False)
        (dropout_kv): Dropout(p=0.0, inplace=False)
        (dropout_attn): Dropout(p=0.0, inplace=False)
        (ff_linear1): Linear(in_features=48, out_features=96, bias=True)
        (ff_linear2): Linear(in_features=96, out_features=48, bias=True)
        (act_fn_ff): ReLU()
        (norm2): BatchNorm1d(48, eps=1e-05, momentum=0.1, affine=True, track_running_stats=True)
        (ff_dropout1): Dropout(p=0.0, inplace=False)
        (ff_dropout2): Dropout(p=0.0, inplace=False)
      )
      (4): UNIFORMGTLayer(
        summary: dim_h=48, global_model_type=SparseTransformer, heads=8
        (edge_processor): Sequential(
          (0): Linear(in_features=48, out_features=48, bias=True)
          (1): ReLU()
          (2): Dropout(p=0.0, inplace=False)
          (3): Linear(in_features=48, out_features=48, bias=True)
          (4): Dropout(p=0.0, inplace=False)
        )
        (kv_model): GatedGCNLayer()
        (self_attn): SparseGraphAttention(
          (W_k): Linear(in_features=48, out_features=48, bias=True)
          (W_v): Linear(in_features=48, out_features=48, bias=True)
          (W_o): Linear(in_features=48, out_features=48, bias=True)
        )
        (norm1_local): BatchNorm1d(48, eps=1e-05, momentum=0.1, affine=True, track_running_stats=True)
        (norm1_kv): BatchNorm1d(48, eps=1e-05, momentum=0.1, affine=True, track_running_stats=True)
        (norm1_attn): BatchNorm1d(48, eps=1e-05, momentum=0.1, affine=True, track_running_stats=True)
        (dropout_local): Dropout(p=0.0, inplace=False)
        (dropout_kv): Dropout(p=0.0, inplace=False)
        (dropout_attn): Dropout(p=0.0, inplace=False)
        (ff_linear1): Linear(in_features=48, out_features=96, bias=True)
        (ff_linear2): Linear(in_features=96, out_features=48, bias=True)
        (act_fn_ff): ReLU()
        (norm2): BatchNorm1d(48, eps=1e-05, momentum=0.1, affine=True, track_running_stats=True)
        (ff_dropout1): Dropout(p=0.0, inplace=False)
        (ff_dropout2): Dropout(p=0.0, inplace=False)
      )
      (5): UNIFORMGTLayer(
        summary: dim_h=48, global_model_type=SparseTransformer, heads=8
        (edge_processor): Sequential(
          (0): Linear(in_features=48, out_features=48, bias=True)
          (1): ReLU()
          (2): Dropout(p=0.0, inplace=False)
          (3): Linear(in_features=48, out_features=48, bias=True)
          (4): Dropout(p=0.0, inplace=False)
        )
        (kv_model): GatedGCNLayer()
        (self_attn): SparseGraphAttention(
          (W_k): Linear(in_features=48, out_features=48, bias=True)
          (W_v): Linear(in_features=48, out_features=48, bias=True)
          (W_o): Linear(in_features=48, out_features=48, bias=True)
        )
        (norm1_local): BatchNorm1d(48, eps=1e-05, momentum=0.1, affine=True, track_running_stats=True)
        (norm1_kv): BatchNorm1d(48, eps=1e-05, momentum=0.1, affine=True, track_running_stats=True)
        (norm1_attn): BatchNorm1d(48, eps=1e-05, momentum=0.1, affine=True, track_running_stats=True)
        (dropout_local): Dropout(p=0.0, inplace=False)
        (dropout_kv): Dropout(p=0.0, inplace=False)
        (dropout_attn): Dropout(p=0.0, inplace=False)
        (ff_linear1): Linear(in_features=48, out_features=96, bias=True)
        (ff_linear2): Linear(in_features=96, out_features=48, bias=True)
        (act_fn_ff): ReLU()
        (norm2): BatchNorm1d(48, eps=1e-05, momentum=0.1, affine=True, track_running_stats=True)
        (ff_dropout1): Dropout(p=0.0, inplace=False)
        (ff_dropout2): Dropout(p=0.0, inplace=False)
      )
      (6): UNIFORMGTLayer(
        summary: dim_h=48, global_model_type=SparseTransformer, heads=8
        (edge_processor): Sequential(
          (0): Linear(in_features=48, out_features=48, bias=True)
          (1): ReLU()
          (2): Dropout(p=0.0, inplace=False)
          (3): Linear(in_features=48, out_features=48, bias=True)
          (4): Dropout(p=0.0, inplace=False)
        )
        (kv_model): GatedGCNLayer()
        (self_attn): SparseGraphAttention(
          (W_k): Linear(in_features=48, out_features=48, bias=True)
          (W_v): Linear(in_features=48, out_features=48, bias=True)
          (W_o): Linear(in_features=48, out_features=48, bias=True)
        )
        (norm1_local): BatchNorm1d(48, eps=1e-05, momentum=0.1, affine=True, track_running_stats=True)
        (norm1_kv): BatchNorm1d(48, eps=1e-05, momentum=0.1, affine=True, track_running_stats=True)
        (norm1_attn): BatchNorm1d(48, eps=1e-05, momentum=0.1, affine=True, track_running_stats=True)
        (dropout_local): Dropout(p=0.0, inplace=False)
        (dropout_kv): Dropout(p=0.0, inplace=False)
        (dropout_attn): Dropout(p=0.0, inplace=False)
        (ff_linear1): Linear(in_features=48, out_features=96, bias=True)
        (ff_linear2): Linear(in_features=96, out_features=48, bias=True)
        (act_fn_ff): ReLU()
        (norm2): BatchNorm1d(48, eps=1e-05, momentum=0.1, affine=True, track_running_stats=True)
        (ff_dropout1): Dropout(p=0.0, inplace=False)
        (ff_dropout2): Dropout(p=0.0, inplace=False)
      )
      (7): UNIFORMGTLayer(
        summary: dim_h=48, global_model_type=SparseTransformer, heads=8
        (edge_processor): Sequential(
          (0): Linear(in_features=48, out_features=48, bias=True)
          (1): ReLU()
          (2): Dropout(p=0.0, inplace=False)
          (3): Linear(in_features=48, out_features=48, bias=True)
          (4): Dropout(p=0.0, inplace=False)
        )
        (kv_model): GatedGCNLayer()
        (self_attn): SparseGraphAttention(
          (W_k): Linear(in_features=48, out_features=48, bias=True)
          (W_v): Linear(in_features=48, out_features=48, bias=True)
          (W_o): Linear(in_features=48, out_features=48, bias=True)
        )
        (norm1_local): BatchNorm1d(48, eps=1e-05, momentum=0.1, affine=True, track_running_stats=True)
        (norm1_kv): BatchNorm1d(48, eps=1e-05, momentum=0.1, affine=True, track_running_stats=True)
        (norm1_attn): BatchNorm1d(48, eps=1e-05, momentum=0.1, affine=True, track_running_stats=True)
        (dropout_local): Dropout(p=0.0, inplace=False)
        (dropout_kv): Dropout(p=0.0, inplace=False)
        (dropout_attn): Dropout(p=0.0, inplace=False)
        (ff_linear1): Linear(in_features=48, out_features=96, bias=True)
        (ff_linear2): Linear(in_features=96, out_features=48, bias=True)
        (act_fn_ff): ReLU()
        (norm2): BatchNorm1d(48, eps=1e-05, momentum=0.1, affine=True, track_running_stats=True)
        (ff_dropout1): Dropout(p=0.0, inplace=False)
        (ff_dropout2): Dropout(p=0.0, inplace=False)
      )
      (8): UNIFORMGTLayer(
        summary: dim_h=48, global_model_type=SparseTransformer, heads=8
        (edge_processor): Sequential(
          (0): Linear(in_features=48, out_features=48, bias=True)
          (1): ReLU()
          (2): Dropout(p=0.0, inplace=False)
          (3): Linear(in_features=48, out_features=48, bias=True)
          (4): Dropout(p=0.0, inplace=False)
        )
        (kv_model): GatedGCNLayer()
        (self_attn): SparseGraphAttention(
          (W_k): Linear(in_features=48, out_features=48, bias=True)
          (W_v): Linear(in_features=48, out_features=48, bias=True)
          (W_o): Linear(in_features=48, out_features=48, bias=True)
        )
        (norm1_local): BatchNorm1d(48, eps=1e-05, momentum=0.1, affine=True, track_running_stats=True)
        (norm1_kv): BatchNorm1d(48, eps=1e-05, momentum=0.1, affine=True, track_running_stats=True)
        (norm1_attn): BatchNorm1d(48, eps=1e-05, momentum=0.1, affine=True, track_running_stats=True)
        (dropout_local): Dropout(p=0.0, inplace=False)
        (dropout_kv): Dropout(p=0.0, inplace=False)
        (dropout_attn): Dropout(p=0.0, inplace=False)
        (ff_linear1): Linear(in_features=48, out_features=96, bias=True)
        (ff_linear2): Linear(in_features=96, out_features=48, bias=True)
        (act_fn_ff): ReLU()
        (norm2): BatchNorm1d(48, eps=1e-05, momentum=0.1, affine=True, track_running_stats=True)
        (ff_dropout1): Dropout(p=0.0, inplace=False)
        (ff_dropout2): Dropout(p=0.0, inplace=False)
      )
      (9): UNIFORMGTLayer(
        summary: dim_h=48, global_model_type=SparseTransformer, heads=8
        (edge_processor): Sequential(
          (0): Linear(in_features=48, out_features=48, bias=True)
          (1): ReLU()
          (2): Dropout(p=0.0, inplace=False)
          (3): Linear(in_features=48, out_features=48, bias=True)
          (4): Dropout(p=0.0, inplace=False)
        )
        (kv_model): GatedGCNLayer()
        (self_attn): SparseGraphAttention(
          (W_k): Linear(in_features=48, out_features=48, bias=True)
          (W_v): Linear(in_features=48, out_features=48, bias=True)
          (W_o): Linear(in_features=48, out_features=48, bias=True)
        )
        (norm1_local): BatchNorm1d(48, eps=1e-05, momentum=0.1, affine=True, track_running_stats=True)
        (norm1_kv): BatchNorm1d(48, eps=1e-05, momentum=0.1, affine=True, track_running_stats=True)
        (norm1_attn): BatchNorm1d(48, eps=1e-05, momentum=0.1, affine=True, track_running_stats=True)
        (dropout_local): Dropout(p=0.0, inplace=False)
        (dropout_kv): Dropout(p=0.0, inplace=False)
        (dropout_attn): Dropout(p=0.0, inplace=False)
        (ff_linear1): Linear(in_features=48, out_features=96, bias=True)
        (ff_linear2): Linear(in_features=96, out_features=48, bias=True)
        (act_fn_ff): ReLU()
        (norm2): BatchNorm1d(48, eps=1e-05, momentum=0.1, affine=True, track_running_stats=True)
        (ff_dropout1): Dropout(p=0.0, inplace=False)
        (ff_dropout2): Dropout(p=0.0, inplace=False)
      )
      (10): UNIFORMGTLayer(
        summary: dim_h=48, global_model_type=SparseTransformer, heads=8
        (edge_processor): Sequential(
          (0): Linear(in_features=48, out_features=48, bias=True)
          (1): ReLU()
          (2): Dropout(p=0.0, inplace=False)
          (3): Linear(in_features=48, out_features=48, bias=True)
          (4): Dropout(p=0.0, inplace=False)
        )
        (kv_model): GatedGCNLayer()
        (self_attn): SparseGraphAttention(
          (W_k): Linear(in_features=48, out_features=48, bias=True)
          (W_v): Linear(in_features=48, out_features=48, bias=True)
          (W_o): Linear(in_features=48, out_features=48, bias=True)
        )
        (norm1_local): BatchNorm1d(48, eps=1e-05, momentum=0.1, affine=True, track_running_stats=True)
        (norm1_kv): BatchNorm1d(48, eps=1e-05, momentum=0.1, affine=True, track_running_stats=True)
        (norm1_attn): BatchNorm1d(48, eps=1e-05, momentum=0.1, affine=True, track_running_stats=True)
        (dropout_local): Dropout(p=0.0, inplace=False)
        (dropout_kv): Dropout(p=0.0, inplace=False)
        (dropout_attn): Dropout(p=0.0, inplace=False)
        (ff_linear1): Linear(in_features=48, out_features=96, bias=True)
        (ff_linear2): Linear(in_features=96, out_features=48, bias=True)
        (act_fn_ff): ReLU()
        (norm2): BatchNorm1d(48, eps=1e-05, momentum=0.1, affine=True, track_running_stats=True)
        (ff_dropout1): Dropout(p=0.0, inplace=False)
        (ff_dropout2): Dropout(p=0.0, inplace=False)
      )
      (11): UNIFORMGTLayer(
        summary: dim_h=48, global_model_type=SparseTransformer, heads=8
        (edge_processor): Sequential(
          (0): Linear(in_features=48, out_features=48, bias=True)
          (1): ReLU()
          (2): Dropout(p=0.0, inplace=False)
          (3): Linear(in_features=48, out_features=48, bias=True)
          (4): Dropout(p=0.0, inplace=False)
        )
        (kv_model): GatedGCNLayer()
        (self_attn): SparseGraphAttention(
          (W_k): Linear(in_features=48, out_features=48, bias=True)
          (W_v): Linear(in_features=48, out_features=48, bias=True)
          (W_o): Linear(in_features=48, out_features=48, bias=True)
        )
        (norm1_local): BatchNorm1d(48, eps=1e-05, momentum=0.1, affine=True, track_running_stats=True)
        (norm1_kv): BatchNorm1d(48, eps=1e-05, momentum=0.1, affine=True, track_running_stats=True)
        (norm1_attn): BatchNorm1d(48, eps=1e-05, momentum=0.1, affine=True, track_running_stats=True)
        (dropout_local): Dropout(p=0.0, inplace=False)
        (dropout_kv): Dropout(p=0.0, inplace=False)
        (dropout_attn): Dropout(p=0.0, inplace=False)
        (ff_linear1): Linear(in_features=48, out_features=96, bias=True)
        (ff_linear2): Linear(in_features=96, out_features=48, bias=True)
        (act_fn_ff): ReLU()
        (norm2): BatchNorm1d(48, eps=1e-05, momentum=0.1, affine=True, track_running_stats=True)
        (ff_dropout1): Dropout(p=0.0, inplace=False)
        (ff_dropout2): Dropout(p=0.0, inplace=False)
      )
      (12): UNIFORMGTLayer(
        summary: dim_h=48, global_model_type=SparseTransformer, heads=8
        (edge_processor): Sequential(
          (0): Linear(in_features=48, out_features=48, bias=True)
          (1): ReLU()
          (2): Dropout(p=0.0, inplace=False)
          (3): Linear(in_features=48, out_features=48, bias=True)
          (4): Dropout(p=0.0, inplace=False)
        )
        (kv_model): GatedGCNLayer()
        (self_attn): SparseGraphAttention(
          (W_k): Linear(in_features=48, out_features=48, bias=True)
          (W_v): Linear(in_features=48, out_features=48, bias=True)
          (W_o): Linear(in_features=48, out_features=48, bias=True)
        )
        (norm1_local): BatchNorm1d(48, eps=1e-05, momentum=0.1, affine=True, track_running_stats=True)
        (norm1_kv): BatchNorm1d(48, eps=1e-05, momentum=0.1, affine=True, track_running_stats=True)
        (norm1_attn): BatchNorm1d(48, eps=1e-05, momentum=0.1, affine=True, track_running_stats=True)
        (dropout_local): Dropout(p=0.0, inplace=False)
        (dropout_kv): Dropout(p=0.0, inplace=False)
        (dropout_attn): Dropout(p=0.0, inplace=False)
        (ff_linear1): Linear(in_features=48, out_features=96, bias=True)
        (ff_linear2): Linear(in_features=96, out_features=48, bias=True)
        (act_fn_ff): ReLU()
        (norm2): BatchNorm1d(48, eps=1e-05, momentum=0.1, affine=True, track_running_stats=True)
        (ff_dropout1): Dropout(p=0.0, inplace=False)
        (ff_dropout2): Dropout(p=0.0, inplace=False)
      )
      (13): UNIFORMGTLayer(
        summary: dim_h=48, global_model_type=SparseTransformer, heads=8
        (edge_processor): Sequential(
          (0): Linear(in_features=48, out_features=48, bias=True)
          (1): ReLU()
          (2): Dropout(p=0.0, inplace=False)
          (3): Linear(in_features=48, out_features=48, bias=True)
          (4): Dropout(p=0.0, inplace=False)
        )
        (kv_model): GatedGCNLayer()
        (self_attn): SparseGraphAttention(
          (W_k): Linear(in_features=48, out_features=48, bias=True)
          (W_v): Linear(in_features=48, out_features=48, bias=True)
          (W_o): Linear(in_features=48, out_features=48, bias=True)
        )
        (norm1_local): BatchNorm1d(48, eps=1e-05, momentum=0.1, affine=True, track_running_stats=True)
        (norm1_kv): BatchNorm1d(48, eps=1e-05, momentum=0.1, affine=True, track_running_stats=True)
        (norm1_attn): BatchNorm1d(48, eps=1e-05, momentum=0.1, affine=True, track_running_stats=True)
        (dropout_local): Dropout(p=0.0, inplace=False)
        (dropout_kv): Dropout(p=0.0, inplace=False)
        (dropout_attn): Dropout(p=0.0, inplace=False)
        (ff_linear1): Linear(in_features=48, out_features=96, bias=True)
        (ff_linear2): Linear(in_features=96, out_features=48, bias=True)
        (act_fn_ff): ReLU()
        (norm2): BatchNorm1d(48, eps=1e-05, momentum=0.1, affine=True, track_running_stats=True)
        (ff_dropout1): Dropout(p=0.0, inplace=False)
        (ff_dropout2): Dropout(p=0.0, inplace=False)
      )
      (14): UNIFORMGTLayer(
        summary: dim_h=48, global_model_type=SparseTransformer, heads=8
        (edge_processor): Sequential(
          (0): Linear(in_features=48, out_features=48, bias=True)
          (1): ReLU()
          (2): Dropout(p=0.0, inplace=False)
          (3): Linear(in_features=48, out_features=48, bias=True)
          (4): Dropout(p=0.0, inplace=False)
        )
        (kv_model): GatedGCNLayer()
        (self_attn): SparseGraphAttention(
          (W_k): Linear(in_features=48, out_features=48, bias=True)
          (W_v): Linear(in_features=48, out_features=48, bias=True)
          (W_o): Linear(in_features=48, out_features=48, bias=True)
        )
        (norm1_local): BatchNorm1d(48, eps=1e-05, momentum=0.1, affine=True, track_running_stats=True)
        (norm1_kv): BatchNorm1d(48, eps=1e-05, momentum=0.1, affine=True, track_running_stats=True)
        (norm1_attn): BatchNorm1d(48, eps=1e-05, momentum=0.1, affine=True, track_running_stats=True)
        (dropout_local): Dropout(p=0.0, inplace=False)
        (dropout_kv): Dropout(p=0.0, inplace=False)
        (dropout_attn): Dropout(p=0.0, inplace=False)
        (ff_linear1): Linear(in_features=48, out_features=96, bias=True)
        (ff_linear2): Linear(in_features=96, out_features=48, bias=True)
        (act_fn_ff): ReLU()
        (norm2): BatchNorm1d(48, eps=1e-05, momentum=0.1, affine=True, track_running_stats=True)
        (ff_dropout1): Dropout(p=0.0, inplace=False)
        (ff_dropout2): Dropout(p=0.0, inplace=False)
      )
      (15): UNIFORMGTLayer(
        summary: dim_h=48, global_model_type=SparseTransformer, heads=8
        (edge_processor): Sequential(
          (0): Linear(in_features=48, out_features=48, bias=True)
          (1): ReLU()
          (2): Dropout(p=0.0, inplace=False)
          (3): Linear(in_features=48, out_features=48, bias=True)
          (4): Dropout(p=0.0, inplace=False)
        )
        (kv_model): GatedGCNLayer()
        (self_attn): SparseGraphAttention(
          (W_k): Linear(in_features=48, out_features=48, bias=True)
          (W_v): Linear(in_features=48, out_features=48, bias=True)
          (W_o): Linear(in_features=48, out_features=48, bias=True)
        )
        (norm1_local): BatchNorm1d(48, eps=1e-05, momentum=0.1, affine=True, track_running_stats=True)
        (norm1_kv): BatchNorm1d(48, eps=1e-05, momentum=0.1, affine=True, track_running_stats=True)
        (norm1_attn): BatchNorm1d(48, eps=1e-05, momentum=0.1, affine=True, track_running_stats=True)
        (dropout_local): Dropout(p=0.0, inplace=False)
        (dropout_kv): Dropout(p=0.0, inplace=False)
        (dropout_attn): Dropout(p=0.0, inplace=False)
        (ff_linear1): Linear(in_features=48, out_features=96, bias=True)
        (ff_linear2): Linear(in_features=96, out_features=48, bias=True)
        (act_fn_ff): ReLU()
        (norm2): BatchNorm1d(48, eps=1e-05, momentum=0.1, affine=True, track_running_stats=True)
        (ff_dropout1): Dropout(p=0.0, inplace=False)
        (ff_dropout2): Dropout(p=0.0, inplace=False)
      )
    )
    (post_mp): GNNInductiveNodeHead(
      (layer_post_mp): MLP(
        (model): Sequential(
          (0): GeneralMultiLayer(
            (Layer_0): GeneralLayer(
              (layer): Linear(
                (model): Linear(48, 48, bias=True)
              )
              (post_layer): Sequential(
                (0): ReLU()
              )
            )
            (Layer_1): GeneralLayer(
              (layer): Linear(
                (model): Linear(48, 48, bias=True)
              )
              (post_layer): Sequential(
                (0): ReLU()
              )
            )
          )
          (1): Linear(
            (model): Linear(48, 6, bias=True)
          )
        )
      )
    )
  )
)
2025-07-11 09:45:11,275 - INFO - Number of parameters: 541,238
2025-07-11 09:45:11,275 - INFO - Starting optimized training: 2025-07-11 09:45:11.275197
2025-07-11 09:45:16,949 - INFO - [*] Loaded dataset 'CLUSTER' from 'PyG-GNNBenchmarkDataset':
2025-07-11 09:45:16,949 - INFO -   Data(x=[1406436, 7], edge_index=[2, 51620680], y=[1406436])
…
