…
/data/coml-deepcmb/lady6973/py310_new_venv/lib/python3.9/site-packages/nni/nas/nn/pytorch/choice.py:252: UserWarning: "key" is deprecated. Assuming label.
  warnings.warn(f'"key" is deprecated. Assuming label.')
2025-08-26 19:04:43,536 - INFO - Created model type: <class 'torch_geometric.graphgym.model_builder.GraphGymModule'>
2025-08-26 19:04:43,536 - INFO - Inner model type: <class 'graphgps.network.NAS_model_edge_syym.NASModelEdge'>
2025-08-26 19:04:43,536 - INFO - Inner model has get_darts_model: True
2025-08-26 19:04:43,538 - INFO - GraphGymModule(
  (model): NASModelEdge(
    (encoder): FeatureEncoder(
      (edge_encoder): DummyEdgeEncoder(
        (encoder): Embedding(1, 64)
      )
    )
    (pre_mp): GeneralMultiLayer(
      (Layer_0): GeneralLayer(
        (layer): Linear(
          (model): Linear(5, 64, bias=False)
        )
        (post_layer): Sequential(
          (0): BatchNorm1d(64, eps=1e-05, momentum=0.1, affine=True, track_running_stats=True)
          (1): ReLU()
        )
      )
    )
    (darts_layers): ModuleList(
      (0): NASLayer(
        summary: dim_h=64, global_model_type=SparseTransformer, num_heads=4, num_experts=3, routing_mode=nas, is_last_layer=False
        (expert_dropout): Dropout(p=0.3, inplace=False)
        (kv_model): ModuleDict(
          (0): GINEConv(nn=Sequential(
            (0): Linear(64, 64, bias=True)
            (1): ReLU()
            (2): Linear(64, 64, bias=True)
          ))
          (1): GatedGCNLayer()
          (2): GATv2Conv(64, 16, heads=4)
        )
        (input_choice): InputChoice(n_candidates=3, n_chosen=1, reduction='sum', label='gnn_mixture_choice_group_0')
        (self_attn): SparseGraphAttention(
          (W_k): Linear(in_features=64, out_features=64, bias=True)
          (W_v): Linear(in_features=64, out_features=64, bias=True)
          (W_o): Linear(in_features=64, out_features=64, bias=True)
        )
        (norm1_kv): BatchNorm1d(64, eps=1e-05, momentum=0.1, affine=True, track_running_stats=True)
        (norm1_attn): BatchNorm1d(64, eps=1e-05, momentum=0.1, affine=True, track_running_stats=True)
        (dropout_kv): Dropout(p=0.0, inplace=False)
        (dropout_attn): Dropout(p=0.0, inplace=False)
        (ff_linear1): Linear(in_features=64, out_features=128, bias=True)
        (ff_linear2): Linear(in_features=128, out_features=64, bias=True)
        (act_fn_ff): ReLU()
        (norm2): BatchNorm1d(64, eps=1e-05, momentum=0.1, affine=True, track_running_stats=True)
        (ff_dropout1): Dropout(p=0.0, inplace=False)
        (ff_dropout2): Dropout(p=0.0, inplace=False)
        (edge_processor): Sequential(
          (0): Linear(in_features=64, out_features=64, bias=True)
          (1): ReLU()
          (2): Dropout(p=0.0, inplace=False)
          (3): Linear(in_features=64, out_features=64, bias=True)
          (4): Dropout(p=0.0, inplace=False)
        )
      )
      (1): NASLayer(
        summary: dim_h=64, global_model_type=SparseTransformer, num_heads=4, num_experts=3, routing_mode=nas, is_last_layer=False
        (expert_dropout): Dropout(p=0.3, inplace=False)
        (kv_model): ModuleDict(
          (0): GINEConv(nn=Sequential(
            (0): Linear(64, 64, bias=True)
            (1): ReLU()
            (2): Linear(64, 64, bias=True)
          ))
          (1): GatedGCNLayer()
          (2): GATv2Conv(64, 16, heads=4)
        )
        (input_choice): InputChoice(n_candidates=3, n_chosen=1, reduction='sum', label='gnn_mixture_choice_group_1')
        (self_attn): SparseGraphAttention(
          (W_k): Linear(in_features=64, out_features=64, bias=True)
          (W_v): Linear(in_features=64, out_features=64, bias=True)
          (W_o): Linear(in_features=64, out_features=64, bias=True)
        )
        (norm1_kv): BatchNorm1d(64, eps=1e-05, momentum=0.1, affine=True, track_running_stats=True)
        (norm1_attn): BatchNorm1d(64, eps=1e-05, momentum=0.1, affine=True, track_running_stats=True)
        (dropout_kv): Dropout(p=0.0, inplace=False)
        (dropout_attn): Dropout(p=0.0, inplace=False)
        (ff_linear1): Linear(in_features=64, out_features=128, bias=True)
        (ff_linear2): Linear(in_features=128, out_features=64, bias=True)
        (act_fn_ff): ReLU()
        (norm2): BatchNorm1d(64, eps=1e-05, momentum=0.1, affine=True, track_running_stats=True)
        (ff_dropout1): Dropout(p=0.0, inplace=False)
        (ff_dropout2): Dropout(p=0.0, inplace=False)
        (edge_processor): Sequential(
          (0): Linear(in_features=64, out_features=64, bias=True)
          (1): ReLU()
          (2): Dropout(p=0.0, inplace=False)
          (3): Linear(in_features=64, out_features=64, bias=True)
          (4): Dropout(p=0.0, inplace=False)
        )
      )
      (2): NASLayer(
        summary: dim_h=64, global_model_type=SparseTransformer, num_heads=4, num_experts=3, routing_mode=nas, is_last_layer=False
        (expert_dropout): Dropout(p=0.3, inplace=False)
        (kv_model): ModuleDict(
          (0): GINEConv(nn=Sequential(
            (0): Linear(64, 64, bias=True)
            (1): ReLU()
            (2): Linear(64, 64, bias=True)
          ))
          (1): GatedGCNLayer()
          (2): GATv2Conv(64, 16, heads=4)
        )
        (input_choice): InputChoice(n_candidates=3, n_chosen=1, reduction='sum', label='gnn_mixture_choice_group_2')
        (self_attn): SparseGraphAttention(
          (W_k): Linear(in_features=64, out_features=64, bias=True)
          (W_v): Linear(in_features=64, out_features=64, bias=True)
          (W_o): Linear(in_features=64, out_features=64, bias=True)
        )
        (norm1_kv): BatchNorm1d(64, eps=1e-05, momentum=0.1, affine=True, track_running_stats=True)
        (norm1_attn): BatchNorm1d(64, eps=1e-05, momentum=0.1, affine=True, track_running_stats=True)
        (dropout_kv): Dropout(p=0.0, inplace=False)
        (dropout_attn): Dropout(p=0.0, inplace=False)
        (ff_linear1): Linear(in_features=64, out_features=128, bias=True)
        (ff_linear2): Linear(in_features=128, out_features=64, bias=True)
        (act_fn_ff): ReLU()
        (norm2): BatchNorm1d(64, eps=1e-05, momentum=0.1, affine=True, track_running_stats=True)
        (ff_dropout1): Dropout(p=0.0, inplace=False)
        (ff_dropout2): Dropout(p=0.0, inplace=False)
        (edge_processor): Sequential(
          (0): Linear(in_features=64, out_features=64, bias=True)
          (1): ReLU()
          (2): Dropout(p=0.0, inplace=False)
          (3): Linear(in_features=64, out_features=64, bias=True)
          (4): Dropout(p=0.0, inplace=False)
        )
      )
      (3): NASLayer(
        summary: dim_h=64, global_model_type=SparseTransformer, num_heads=4, num_experts=3, routing_mode=nas, is_last_layer=False
        (expert_dropout): Dropout(p=0.3, inplace=False)
        (kv_model): ModuleDict(
          (0): GINEConv(nn=Sequential(
            (0): Linear(64, 64, bias=True)
            (1): ReLU()
            (2): Linear(64, 64, bias=True)
          ))
          (1): GatedGCNLayer()
          (2): GATv2Conv(64, 16, heads=4)
        )
        (input_choice): InputChoice(n_candidates=3, n_chosen=1, reduction='sum', label='gnn_mixture_choice_group_3')
        (self_attn): SparseGraphAttention(
          (W_k): Linear(in_features=64, out_features=64, bias=True)
          (W_v): Linear(in_features=64, out_features=64, bias=True)
          (W_o): Linear(in_features=64, out_features=64, bias=True)
        )
        (norm1_kv): BatchNorm1d(64, eps=1e-05, momentum=0.1, affine=True, track_running_stats=True)
        (norm1_attn): BatchNorm1d(64, eps=1e-05, momentum=0.1, affine=True, track_running_stats=True)
        (dropout_kv): Dropout(p=0.0, inplace=False)
        (dropout_attn): Dropout(p=0.0, inplace=False)
        (ff_linear1): Linear(in_features=64, out_features=128, bias=True)
        (ff_linear2): Linear(in_features=128, out_features=64, bias=True)
        (act_fn_ff): ReLU()
        (norm2): BatchNorm1d(64, eps=1e-05, momentum=0.1, affine=True, track_running_stats=True)
        (ff_dropout1): Dropout(p=0.0, inplace=False)
        (ff_dropout2): Dropout(p=0.0, inplace=False)
        (edge_processor): Sequential(
          (0): Linear(in_features=64, out_features=64, bias=True)
          (1): ReLU()
          (2): Dropout(p=0.0, inplace=False)
          (3): Linear(in_features=64, out_features=64, bias=True)
          (4): Dropout(p=0.0, inplace=False)
        )
      )
    )
    (darts_sequential): Sequential(
      (0): NASLayer(
        summary: dim_h=64, global_model_type=SparseTransformer, num_heads=4, num_experts=3, routing_mode=nas, is_last_layer=False
        (expert_dropout): Dropout(p=0.3, inplace=False)
        (kv_model): ModuleDict(
          (0): GINEConv(nn=Sequential(
            (0): Linear(64, 64, bias=True)
            (1): ReLU()
            (2): Linear(64, 64, bias=True)
          ))
          (1): GatedGCNLayer()
          (2): GATv2Conv(64, 16, heads=4)
        )
        (input_choice): InputChoice(n_candidates=3, n_chosen=1, reduction='sum', label='gnn_mixture_choice_group_0')
        (self_attn): SparseGraphAttention(
          (W_k): Linear(in_features=64, out_features=64, bias=True)
          (W_v): Linear(in_features=64, out_features=64, bias=True)
          (W_o): Linear(in_features=64, out_features=64, bias=True)
        )
        (norm1_kv): BatchNorm1d(64, eps=1e-05, momentum=0.1, affine=True, track_running_stats=True)
        (norm1_attn): BatchNorm1d(64, eps=1e-05, momentum=0.1, affine=True, track_running_stats=True)
        (dropout_kv): Dropout(p=0.0, inplace=False)
        (dropout_attn): Dropout(p=0.0, inplace=False)
        (ff_linear1): Linear(in_features=64, out_features=128, bias=True)
        (ff_linear2): Linear(in_features=128, out_features=64, bias=True)
        (act_fn_ff): ReLU()
        (norm2): BatchNorm1d(64, eps=1e-05, momentum=0.1, affine=True, track_running_stats=True)
        (ff_dropout1): Dropout(p=0.0, inplace=False)
        (ff_dropout2): Dropout(p=0.0, inplace=False)
        (edge_processor): Sequential(
          (0): Linear(in_features=64, out_features=64, bias=True)
          (1): ReLU()
          (2): Dropout(p=0.0, inplace=False)
          (3): Linear(in_features=64, out_features=64, bias=True)
          (4): Dropout(p=0.0, inplace=False)
        )
      )
      (1): NASLayer(
        summary: dim_h=64, global_model_type=SparseTransformer, num_heads=4, num_experts=3, routing_mode=nas, is_last_layer=False
        (expert_dropout): Dropout(p=0.3, inplace=False)
        (kv_model): ModuleDict(
          (0): GINEConv(nn=Sequential(
            (0): Linear(64, 64, bias=True)
            (1): ReLU()
            (2): Linear(64, 64, bias=True)
          ))
          (1): GatedGCNLayer()
          (2): GATv2Conv(64, 16, heads=4)
        )
        (input_choice): InputChoice(n_candidates=3, n_chosen=1, reduction='sum', label='gnn_mixture_choice_group_1')
        (self_attn): SparseGraphAttention(
          (W_k): Linear(in_features=64, out_features=64, bias=True)
          (W_v): Linear(in_features=64, out_features=64, bias=True)
          (W_o): Linear(in_features=64, out_features=64, bias=True)
        )
        (norm1_kv): BatchNorm1d(64, eps=1e-05, momentum=0.1, affine=True, track_running_stats=True)
        (norm1_attn): BatchNorm1d(64, eps=1e-05, momentum=0.1, affine=True, track_running_stats=True)
        (dropout_kv): Dropout(p=0.0, inplace=False)
        (dropout_attn): Dropout(p=0.0, inplace=False)
        (ff_linear1): Linear(in_features=64, out_features=128, bias=True)
        (ff_linear2): Linear(in_features=128, out_features=64, bias=True)
        (act_fn_ff): ReLU()
        (norm2): BatchNorm1d(64, eps=1e-05, momentum=0.1, affine=True, track_running_stats=True)
        (ff_dropout1): Dropout(p=0.0, inplace=False)
        (ff_dropout2): Dropout(p=0.0, inplace=False)
        (edge_processor): Sequential(
          (0): Linear(in_features=64, out_features=64, bias=True)
          (1): ReLU()
          (2): Dropout(p=0.0, inplace=False)
          (3): Linear(in_features=64, out_features=64, bias=True)
          (4): Dropout(p=0.0, inplace=False)
        )
      )
      (2): NASLayer(
        summary: dim_h=64, global_model_type=SparseTransformer, num_heads=4, num_experts=3, routing_mode=nas, is_last_layer=False
        (expert_dropout): Dropout(p=0.3, inplace=False)
        (kv_model): ModuleDict(
          (0): GINEConv(nn=Sequential(
            (0): Linear(64, 64, bias=True)
            (1): ReLU()
            (2): Linear(64, 64, bias=True)
          ))
          (1): GatedGCNLayer()
          (2): GATv2Conv(64, 16, heads=4)
        )
        (input_choice): InputChoice(n_candidates=3, n_chosen=1, reduction='sum', label='gnn_mixture_choice_group_2')
        (self_attn): SparseGraphAttention(
          (W_k): Linear(in_features=64, out_features=64, bias=True)
          (W_v): Linear(in_features=64, out_features=64, bias=True)
          (W_o): Linear(in_features=64, out_features=64, bias=True)
        )
        (norm1_kv): BatchNorm1d(64, eps=1e-05, momentum=0.1, affine=True, track_running_stats=True)
        (norm1_attn): BatchNorm1d(64, eps=1e-05, momentum=0.1, affine=True, track_running_stats=True)
        (dropout_kv): Dropout(p=0.0, inplace=False)
        (dropout_attn): Dropout(p=0.0, inplace=False)
        (ff_linear1): Linear(in_features=64, out_features=128, bias=True)
        (ff_linear2): Linear(in_features=128, out_features=64, bias=True)
        (act_fn_ff): ReLU()
        (norm2): BatchNorm1d(64, eps=1e-05, momentum=0.1, affine=True, track_running_stats=True)
        (ff_dropout1): Dropout(p=0.0, inplace=False)
        (ff_dropout2): Dropout(p=0.0, inplace=False)
        (edge_processor): Sequential(
          (0): Linear(in_features=64, out_features=64, bias=True)
          (1): ReLU()
          (2): Dropout(p=0.0, inplace=False)
          (3): Linear(in_features=64, out_features=64, bias=True)
          (4): Dropout(p=0.0, inplace=False)
        )
      )
      (3): NASLayer(
        summary: dim_h=64, global_model_type=SparseTransformer, num_heads=4, num_experts=3, routing_mode=nas, is_last_layer=False
        (expert_dropout): Dropout(p=0.3, inplace=False)
        (kv_model): ModuleDict(
          (0): GINEConv(nn=Sequential(
            (0): Linear(64, 64, bias=True)
            (1): ReLU()
            (2): Linear(64, 64, bias=True)
          ))
          (1): GatedGCNLayer()
          (2): GATv2Conv(64, 16, heads=4)
        )
        (input_choice): InputChoice(n_candidates=3, n_chosen=1, reduction='sum', label='gnn_mixture_choice_group_3')
        (self_attn): SparseGraphAttention(
          (W_k): Linear(in_features=64, out_features=64, bias=True)
          (W_v): Linear(in_features=64, out_features=64, bias=True)
          (W_o): Linear(in_features=64, out_features=64, bias=True)
        )
        (norm1_kv): BatchNorm1d(64, eps=1e-05, momentum=0.1, affine=True, track_running_stats=True)
        (norm1_attn): BatchNorm1d(64, eps=1e-05, momentum=0.1, affine=True, track_running_stats=True)
        (dropout_kv): Dropout(p=0.0, inplace=False)
        (dropout_attn): Dropout(p=0.0, inplace=False)
        (ff_linear1): Linear(in_features=64, out_features=128, bias=True)
        (ff_linear2): Linear(in_features=128, out_features=64, bias=True)
        (act_fn_ff): ReLU()
        (norm2): BatchNorm1d(64, eps=1e-05, momentum=0.1, affine=True, track_running_stats=True)
        (ff_dropout1): Dropout(p=0.0, inplace=False)
        (ff_dropout2): Dropout(p=0.0, inplace=False)
        (edge_processor): Sequential(
          (0): Linear(in_features=64, out_features=64, bias=True)
          (1): ReLU()
          (2): Dropout(p=0.0, inplace=False)
          (3): Linear(in_features=64, out_features=64, bias=True)
          (4): Dropout(p=0.0, inplace=False)
        )
      )
    )
    (post_mp): GNNGraphHead(
      (layer_post_mp): MLP(
        (model): Sequential(
          (0): GeneralMultiLayer(
            (Layer_0): GeneralLayer(
              (layer): Linear(
                (model): Linear(64, 64, bias=True)
              )
              (post_layer): Sequential(
                (0): ReLU()
              )
            )
            (Layer_1): GeneralLayer(
              (layer): Linear(
                (model): Linear(64, 64, bias=True)
              )
              (post_layer): Sequential(
                (0): ReLU()
              )
            )
          )
          (1): Linear(
            (model): Linear(64, 5, bias=True)
          )
        )
      )
    )
  )
)
2025-08-26 19:04:43,542 - INFO - Number of parameters: 327,881
2025-08-26 19:04:43,542 - INFO - Starting optimized training: 2025-08-26 19:04:43.542122
2025-08-26 19:04:43,637 - INFO - Computing "LocalDegreeProfile" node features for MalNetTiny.
2025-08-26 19:04:47,991 - INFO - [*] Loaded dataset 'LocalDegreeProfile' from 'PyG-MalNetTiny':
…
