…
/data/coml-deepcmb/lady6973/py310_new_venv/lib/python3.9/site-packages/nni/nas/nn/pytorch/choice.py:252: UserWarning: "key" is deprecated. Assuming label.
  warnings.warn(f'"key" is deprecated. Assuming label.')
2025-08-16 16:24:52,852 - INFO - Created model type: <class 'torch_geometric.graphgym.model_builder.GraphGymModule'>
2025-08-16 16:24:52,853 - INFO - Inner model type: <class 'graphgps.network.NAS_model_qproj.NASModel'>
2025-08-16 16:24:52,853 - INFO - Inner model has get_darts_model: True
2025-08-16 16:24:52,854 - INFO - GraphGymModule(
  (model): NASModel(
    (encoder): FeatureEncoder(
      (node_encoder): Concat2NodeEncoder(
        (encoder1): AtomEncoder(
          (atom_embedding_list): ModuleList(
            (0): Embedding(119, 104)
            (1): Embedding(5, 104)
            (2-3): 2 x Embedding(12, 104)
            (4): Embedding(10, 104)
            (5-6): 2 x Embedding(6, 104)
            (7-8): 2 x Embedding(2, 104)
          )
        )
        (encoder2): LapPENodeEncoder(
          (linear_A): Linear(in_features=2, out_features=32, bias=True)
          (pe_encoder): Sequential(
            (0): ReLU()
            (1): Linear(in_features=32, out_features=16, bias=True)
            (2): ReLU()
          )
        )
      )
      (edge_encoder): BondEncoder(
        (bond_embedding_list): ModuleList(
          (0): Embedding(5, 120)
          (1): Embedding(6, 120)
          (2): Embedding(2, 120)
        )
      )
    )
    (darts_layers): ModuleList(
      (0): NASLayer(
        summary: dim_h=120, global_model_type=SparseTransformer, num_heads=4, num_experts=3, routing_mode=nas, is_last_layer=False
        (expert_dropout): Dropout(p=0.3, inplace=False)
        (kv_model): ModuleDict(
          (0): GINEConv(nn=Sequential(
            (0): Linear(120, 120, bias=True)
            (1): ReLU()
            (2): Linear(120, 120, bias=True)
          ))
          (1): GatedGCNLayer()
          (2): GATv2Conv(120, 30, heads=4)
        )
        (input_choice): InputChoice(n_candidates=3, n_chosen=1, reduction='sum', label='gnn_mixture_choice_group_0')
        (self_attn): SparseGraphAttention(
          (W_k): Linear(in_features=120, out_features=120, bias=True)
          (W_v): Linear(in_features=120, out_features=120, bias=True)
          (W_o): Linear(in_features=120, out_features=120, bias=True)
        )
        (q_projection): Sequential(
          (0): Linear(in_features=120, out_features=120, bias=True)
          (1): ReLU()
          (2): Linear(in_features=120, out_features=120, bias=True)
        )
        (norm1_kv): BatchNorm1d(120, eps=1e-05, momentum=0.1, affine=True, track_running_stats=True)
        (norm1_attn): BatchNorm1d(120, eps=1e-05, momentum=0.1, affine=True, track_running_stats=True)
        (dropout_kv): Dropout(p=0.0, inplace=False)
        (dropout_attn): Dropout(p=0.0, inplace=False)
        (ff_linear1): Linear(in_features=120, out_features=240, bias=True)
        (ff_linear2): Linear(in_features=240, out_features=120, bias=True)
        (act_fn_ff): ReLU()
        (norm2): BatchNorm1d(120, eps=1e-05, momentum=0.1, affine=True, track_running_stats=True)
        (ff_dropout1): Dropout(p=0.0, inplace=False)
        (ff_dropout2): Dropout(p=0.0, inplace=False)
      )
      (1): NASLayer(
        summary: dim_h=120, global_model_type=SparseTransformer, num_heads=4, num_experts=3, routing_mode=nas, is_last_layer=False
        (expert_dropout): Dropout(p=0.3, inplace=False)
        (kv_model): ModuleDict(
          (0): GINEConv(nn=Sequential(
            (0): Linear(120, 120, bias=True)
            (1): ReLU()
            (2): Linear(120, 120, bias=True)
          ))
          (1): GatedGCNLayer()
          (2): GATv2Conv(120, 30, heads=4)
        )
        (input_choice): InputChoice(n_candidates=3, n_chosen=1, reduction='sum', label='gnn_mixture_choice_group_1')
        (self_attn): SparseGraphAttention(
          (W_k): Linear(in_features=120, out_features=120, bias=True)
          (W_v): Linear(in_features=120, out_features=120, bias=True)
          (W_o): Linear(in_features=120, out_features=120, bias=True)
        )
        (q_projection): Sequential(
          (0): Linear(in_features=120, out_features=120, bias=True)
          (1): ReLU()
          (2): Linear(in_features=120, out_features=120, bias=True)
        )
        (norm1_kv): BatchNorm1d(120, eps=1e-05, momentum=0.1, affine=True, track_running_stats=True)
        (norm1_attn): BatchNorm1d(120, eps=1e-05, momentum=0.1, affine=True, track_running_stats=True)
        (dropout_kv): Dropout(p=0.0, inplace=False)
        (dropout_attn): Dropout(p=0.0, inplace=False)
        (ff_linear1): Linear(in_features=120, out_features=240, bias=True)
        (ff_linear2): Linear(in_features=240, out_features=120, bias=True)
        (act_fn_ff): ReLU()
        (norm2): BatchNorm1d(120, eps=1e-05, momentum=0.1, affine=True, track_running_stats=True)
        (ff_dropout1): Dropout(p=0.0, inplace=False)
        (ff_dropout2): Dropout(p=0.0, inplace=False)
      )
    )
    (darts_sequential): Sequential(
      (0): NASLayer(
        summary: dim_h=120, global_model_type=SparseTransformer, num_heads=4, num_experts=3, routing_mode=nas, is_last_layer=False
        (expert_dropout): Dropout(p=0.3, inplace=False)
        (kv_model): ModuleDict(
          (0): GINEConv(nn=Sequential(
            (0): Linear(120, 120, bias=True)
            (1): ReLU()
            (2): Linear(120, 120, bias=True)
          ))
          (1): GatedGCNLayer()
          (2): GATv2Conv(120, 30, heads=4)
        )
        (input_choice): InputChoice(n_candidates=3, n_chosen=1, reduction='sum', label='gnn_mixture_choice_group_0')
        (self_attn): SparseGraphAttention(
          (W_k): Linear(in_features=120, out_features=120, bias=True)
          (W_v): Linear(in_features=120, out_features=120, bias=True)
          (W_o): Linear(in_features=120, out_features=120, bias=True)
        )
        (q_projection): Sequential(
          (0): Linear(in_features=120, out_features=120, bias=True)
          (1): ReLU()
          (2): Linear(in_features=120, out_features=120, bias=True)
        )
        (norm1_kv): BatchNorm1d(120, eps=1e-05, momentum=0.1, affine=True, track_running_stats=True)
        (norm1_attn): BatchNorm1d(120, eps=1e-05, momentum=0.1, affine=True, track_running_stats=True)
        (dropout_kv): Dropout(p=0.0, inplace=False)
        (dropout_attn): Dropout(p=0.0, inplace=False)
        (ff_linear1): Linear(in_features=120, out_features=240, bias=True)
        (ff_linear2): Linear(in_features=240, out_features=120, bias=True)
        (act_fn_ff): ReLU()
        (norm2): BatchNorm1d(120, eps=1e-05, momentum=0.1, affine=True, track_running_stats=True)
        (ff_dropout1): Dropout(p=0.0, inplace=False)
        (ff_dropout2): Dropout(p=0.0, inplace=False)
      )
      (1): NASLayer(
        summary: dim_h=120, global_model_type=SparseTransformer, num_heads=4, num_experts=3, routing_mode=nas, is_last_layer=False
        (expert_dropout): Dropout(p=0.3, inplace=False)
        (kv_model): ModuleDict(
          (0): GINEConv(nn=Sequential(
            (0): Linear(120, 120, bias=True)
            (1): ReLU()
            (2): Linear(120, 120, bias=True)
          ))
          (1): GatedGCNLayer()
          (2): GATv2Conv(120, 30, heads=4)
        )
        (input_choice): InputChoice(n_candidates=3, n_chosen=1, reduction='sum', label='gnn_mixture_choice_group_1')
        (self_attn): SparseGraphAttention(
          (W_k): Linear(in_features=120, out_features=120, bias=True)
          (W_v): Linear(in_features=120, out_features=120, bias=True)
          (W_o): Linear(in_features=120, out_features=120, bias=True)
        )
        (q_projection): Sequential(
          (0): Linear(in_features=120, out_features=120, bias=True)
          (1): ReLU()
          (2): Linear(in_features=120, out_features=120, bias=True)
        )
        (norm1_kv): BatchNorm1d(120, eps=1e-05, momentum=0.1, affine=True, track_running_stats=True)
        (norm1_attn): BatchNorm1d(120, eps=1e-05, momentum=0.1, affine=True, track_running_stats=True)
        (dropout_kv): Dropout(p=0.0, inplace=False)
        (dropout_attn): Dropout(p=0.0, inplace=False)
        (ff_linear1): Linear(in_features=120, out_features=240, bias=True)
        (ff_linear2): Linear(in_features=240, out_features=120, bias=True)
        (act_fn_ff): ReLU()
        (norm2): BatchNorm1d(120, eps=1e-05, momentum=0.1, affine=True, track_running_stats=True)
        (ff_dropout1): Dropout(p=0.0, inplace=False)
        (ff_dropout2): Dropout(p=0.0, inplace=False)
      )
    )
    (post_mp): GNNGraphHead(
      (layer_post_mp): MLP(
        (model): Sequential(
          (0): Linear(
            (model): Linear(120, 11, bias=True)
          )
        )
      )
    )
  )
)
2025-08-16 16:24:52,856 - INFO - Number of parameters: 575,771
2025-08-16 16:24:52,856 - INFO - Starting optimized training: 2025-08-16 16:24:52.856868
2025-08-16 16:24:53,004 - INFO - [*] Loaded dataset 'peptides-structural' from 'OGB':
2025-08-16 16:24:53,004 - INFO -   Data(edge_index=[2, 4773974], edge_attr=[4773974, 3], x=[2344859, 9], y=[15535, 11])
…
