…
2025-08-23 09:34:32,639 - INFO -   num classes: 5
2025-08-23 09:34:32,641 - INFO - [*] Loaded dataset 'LocalDegreeProfile' from 'PyG-MalNetTiny'
2025-08-23 09:34:32,790 - INFO - Created model type: <class 'torch_geometric.graphgym.model_builder.GraphGymModule'>
2025-08-23 09:34:32,790 - INFO - Inner model type: <class 'graphgps.network.uniform_gt_model_edge.UNIFORM_GTModelEdge'>
2025-08-23 09:34:32,790 - INFO - Inner model has get_darts_model: False
2025-08-23 09:34:32,791 - INFO - GraphGymModule(
  (model): UNIFORM_GTModelEdge(
    (encoder): FeatureEncoder(
      (edge_encoder): DummyEdgeEncoder(
        (encoder): Embedding(1, 64)
      )
    )
    (pre_mp): GeneralMultiLayer(
      (Layer_0): GeneralLayer(
        (layer): Linear(
          (model): Linear(5, 64, bias=False)
        )
        (post_layer): Sequential(
          (0): BatchNorm1d(64, eps=1e-05, momentum=0.1, affine=True, track_running_stats=True)
          (1): ReLU()
        )
      )
    )
    (layers): Sequential(
      (0): UNIFORMGTLayer(
        summary: dim_h=64, global_model_type=SparseTransformer, heads=4
        (edge_processor): Sequential(
          (0): Linear(in_features=64, out_features=64, bias=True)
          (1): ReLU()
          (2): Dropout(p=0.0, inplace=False)
          (3): Linear(in_features=64, out_features=64, bias=True)
          (4): Dropout(p=0.0, inplace=False)
        )
        (kv_model): GINEConv(nn=Sequential(
          (0): Linear(64, 64, bias=True)
          (1): ReLU()
          (2): Linear(64, 64, bias=True)
        ))
        (self_attn): SparseGraphAttention(
          (W_k): Linear(in_features=64, out_features=64, bias=True)
          (W_v): Linear(in_features=64, out_features=64, bias=True)
          (W_o): Linear(in_features=64, out_features=64, bias=True)
        )
        (norm1_local): BatchNorm1d(64, eps=1e-05, momentum=0.1, affine=True, track_running_stats=True)
        (norm1_kv): BatchNorm1d(64, eps=1e-05, momentum=0.1, affine=True, track_running_stats=True)
        (norm1_attn): BatchNorm1d(64, eps=1e-05, momentum=0.1, affine=True, track_running_stats=True)
        (dropout_local): Dropout(p=0.0, inplace=False)
        (dropout_kv): Dropout(p=0.0, inplace=False)
        (dropout_attn): Dropout(p=0.0, inplace=False)
        (ff_linear1): Linear(in_features=64, out_features=128, bias=True)
        (ff_linear2): Linear(in_features=128, out_features=64, bias=True)
        (act_fn_ff): ReLU()
        (norm2): BatchNorm1d(64, eps=1e-05, momentum=0.1, affine=True, track_running_stats=True)
        (ff_dropout1): Dropout(p=0.0, inplace=False)
        (ff_dropout2): Dropout(p=0.0, inplace=False)
      )
      (1): UNIFORMGTLayer(
        summary: dim_h=64, global_model_type=SparseTransformer, heads=4
        (edge_processor): Sequential(
          (0): Linear(in_features=64, out_features=64, bias=True)
          (1): ReLU()
          (2): Dropout(p=0.0, inplace=False)
          (3): Linear(in_features=64, out_features=64, bias=True)
          (4): Dropout(p=0.0, inplace=False)
        )
        (kv_model): GINEConv(nn=Sequential(
          (0): Linear(64, 64, bias=True)
          (1): ReLU()
          (2): Linear(64, 64, bias=True)
        ))
        (self_attn): SparseGraphAttention(
          (W_k): Linear(in_features=64, out_features=64, bias=True)
          (W_v): Linear(in_features=64, out_features=64, bias=True)
          (W_o): Linear(in_features=64, out_features=64, bias=True)
        )
        (norm1_local): BatchNorm1d(64, eps=1e-05, momentum=0.1, affine=True, track_running_stats=True)
        (norm1_kv): BatchNorm1d(64, eps=1e-05, momentum=0.1, affine=True, track_running_stats=True)
        (norm1_attn): BatchNorm1d(64, eps=1e-05, momentum=0.1, affine=True, track_running_stats=True)
        (dropout_local): Dropout(p=0.0, inplace=False)
        (dropout_kv): Dropout(p=0.0, inplace=False)
        (dropout_attn): Dropout(p=0.0, inplace=False)
        (ff_linear1): Linear(in_features=64, out_features=128, bias=True)
        (ff_linear2): Linear(in_features=128, out_features=64, bias=True)
        (act_fn_ff): ReLU()
        (norm2): BatchNorm1d(64, eps=1e-05, momentum=0.1, affine=True, track_running_stats=True)
        (ff_dropout1): Dropout(p=0.0, inplace=False)
        (ff_dropout2): Dropout(p=0.0, inplace=False)
      )
      (2): UNIFORMGTLayer(
        summary: dim_h=64, global_model_type=SparseTransformer, heads=4
        (edge_processor): Sequential(
          (0): Linear(in_features=64, out_features=64, bias=True)
          (1): ReLU()
          (2): Dropout(p=0.0, inplace=False)
          (3): Linear(in_features=64, out_features=64, bias=True)
          (4): Dropout(p=0.0, inplace=False)
        )
        (kv_model): GINEConv(nn=Sequential(
          (0): Linear(64, 64, bias=True)
          (1): ReLU()
          (2): Linear(64, 64, bias=True)
        ))
        (self_attn): SparseGraphAttention(
          (W_k): Linear(in_features=64, out_features=64, bias=True)
          (W_v): Linear(in_features=64, out_features=64, bias=True)
          (W_o): Linear(in_features=64, out_features=64, bias=True)
        )
        (norm1_local): BatchNorm1d(64, eps=1e-05, momentum=0.1, affine=True, track_running_stats=True)
        (norm1_kv): BatchNorm1d(64, eps=1e-05, momentum=0.1, affine=True, track_running_stats=True)
        (norm1_attn): BatchNorm1d(64, eps=1e-05, momentum=0.1, affine=True, track_running_stats=True)
        (dropout_local): Dropout(p=0.0, inplace=False)
        (dropout_kv): Dropout(p=0.0, inplace=False)
        (dropout_attn): Dropout(p=0.0, inplace=False)
        (ff_linear1): Linear(in_features=64, out_features=128, bias=True)
        (ff_linear2): Linear(in_features=128, out_features=64, bias=True)
        (act_fn_ff): ReLU()
        (norm2): BatchNorm1d(64, eps=1e-05, momentum=0.1, affine=True, track_running_stats=True)
        (ff_dropout1): Dropout(p=0.0, inplace=False)
        (ff_dropout2): Dropout(p=0.0, inplace=False)
      )
      (3): UNIFORMGTLayer(
        summary: dim_h=64, global_model_type=SparseTransformer, heads=4
        (edge_processor): Sequential(
          (0): Linear(in_features=64, out_features=64, bias=True)
          (1): ReLU()
          (2): Dropout(p=0.0, inplace=False)
          (3): Linear(in_features=64, out_features=64, bias=True)
          (4): Dropout(p=0.0, inplace=False)
        )
        (kv_model): GINEConv(nn=Sequential(
          (0): Linear(64, 64, bias=True)
          (1): ReLU()
          (2): Linear(64, 64, bias=True)
        ))
        (self_attn): SparseGraphAttention(
          (W_k): Linear(in_features=64, out_features=64, bias=True)
          (W_v): Linear(in_features=64, out_features=64, bias=True)
          (W_o): Linear(in_features=64, out_features=64, bias=True)
        )
        (norm1_local): BatchNorm1d(64, eps=1e-05, momentum=0.1, affine=True, track_running_stats=True)
        (norm1_kv): BatchNorm1d(64, eps=1e-05, momentum=0.1, affine=True, track_running_stats=True)
        (norm1_attn): BatchNorm1d(64, eps=1e-05, momentum=0.1, affine=True, track_running_stats=True)
        (dropout_local): Dropout(p=0.0, inplace=False)
        (dropout_kv): Dropout(p=0.0, inplace=False)
        (dropout_attn): Dropout(p=0.0, inplace=False)
        (ff_linear1): Linear(in_features=64, out_features=128, bias=True)
        (ff_linear2): Linear(in_features=128, out_features=64, bias=True)
        (act_fn_ff): ReLU()
        (norm2): BatchNorm1d(64, eps=1e-05, momentum=0.1, affine=True, track_running_stats=True)
        (ff_dropout1): Dropout(p=0.0, inplace=False)
        (ff_dropout2): Dropout(p=0.0, inplace=False)
      )
    )
    (post_mp): GNNGraphHead(
      (layer_post_mp): MLP(
        (model): Sequential(
          (0): GeneralMultiLayer(
            (Layer_0): GeneralLayer(
              (layer): Linear(
                (model): Linear(64, 64, bias=True)
              )
              (post_layer): Sequential(
                (0): ReLU()
              )
            )
            (Layer_1): GeneralLayer(
              (layer): Linear(
                (model): Linear(64, 64, bias=True)
              )
              (post_layer): Sequential(
                (0): ReLU()
              )
            )
          )
          (1): Linear(
            (model): Linear(64, 5, bias=True)
          )
        )
      )
    )
  )
)
2025-08-23 09:34:32,793 - INFO - Number of parameters: 193,993
2025-08-23 09:34:32,793 - INFO - Starting optimized training: 2025-08-23 09:34:32.793642
2025-08-23 09:34:32,883 - INFO - Computing "LocalDegreeProfile" node features for MalNetTiny.
2025-08-23 09:34:36,962 - INFO - [*] Loaded dataset 'LocalDegreeProfile' from 'PyG-MalNetTiny':
…
