…
RANDOMGTLayer: Randomly selected GNN type: GINE
RANDOMGTLayer: Randomly selected GNN type: GINE
2025-08-23 09:07:31,278 - INFO - Created model type: <class 'torch_geometric.graphgym.model_builder.GraphGymModule'>
2025-08-23 09:07:31,279 - INFO - Inner model type: <class 'graphgps.network.Rand_model_Q.RANDOM_GTModel'>
2025-08-23 09:07:31,279 - INFO - Inner model has get_darts_model: False
2025-08-23 09:07:31,280 - INFO - GraphGymModule(
  (model): RANDOM_GTModel(
    (encoder): FeatureEncoder(
      (node_encoder): Concat2NodeEncoder(
        (encoder1): AtomEncoder(
          (atom_embedding_list): ModuleList(
            (0): Embedding(119, 104)
            (1): Embedding(5, 104)
            (2-3): 2 x Embedding(12, 104)
            (4): Embedding(10, 104)
            (5-6): 2 x Embedding(6, 104)
            (7-8): 2 x Embedding(2, 104)
          )
        )
        (encoder2): LapPENodeEncoder(
          (linear_A): Linear(in_features=2, out_features=32, bias=True)
          (pe_encoder): Sequential(
            (0): ReLU()
            (1): Linear(in_features=32, out_features=16, bias=True)
            (2): ReLU()
          )
        )
      )
      (edge_encoder): BondEncoder(
        (bond_embedding_list): ModuleList(
          (0): Embedding(5, 120)
          (1): Embedding(6, 120)
          (2): Embedding(2, 120)
        )
      )
    )
    (layers): Sequential(
      (0): RANDOMGTLayer(
        summary: dim_h=120, global_model_type=Transformer, heads=4
        (kv_model): GINEConv(nn=Sequential(
          (0): Linear(120, 120, bias=True)
          (1): ReLU()
          (2): Linear(120, 120, bias=True)
        ))
        (self_attn): MultiheadAttention(
          (out_proj): NonDynamicallyQuantizableLinear(in_features=120, out_features=120, bias=True)
        )
        (q_projection): Sequential(
          (0): Linear(in_features=120, out_features=120, bias=True)
          (1): ReLU()
          (2): Linear(in_features=120, out_features=120, bias=True)
        )
        (norm1_local): BatchNorm1d(120, eps=1e-05, momentum=0.1, affine=True, track_running_stats=True)
        (norm1_kv): BatchNorm1d(120, eps=1e-05, momentum=0.1, affine=True, track_running_stats=True)
        (norm1_attn): BatchNorm1d(120, eps=1e-05, momentum=0.1, affine=True, track_running_stats=True)
        (dropout_local): Dropout(p=0.0, inplace=False)
        (dropout_kv): Dropout(p=0.0, inplace=False)
        (dropout_attn): Dropout(p=0.0, inplace=False)
        (ff_linear1): Linear(in_features=120, out_features=240, bias=True)
        (ff_linear2): Linear(in_features=240, out_features=120, bias=True)
        (act_fn_ff): ReLU()
        (norm2): BatchNorm1d(120, eps=1e-05, momentum=0.1, affine=True, track_running_stats=True)
        (ff_dropout1): Dropout(p=0.0, inplace=False)
        (ff_dropout2): Dropout(p=0.0, inplace=False)
      )
      (1): RANDOMGTLayer(
        summary: dim_h=120, global_model_type=Transformer, heads=4
        (kv_model): GINEConv(nn=Sequential(
          (0): Linear(120, 120, bias=True)
          (1): ReLU()
          (2): Linear(120, 120, bias=True)
        ))
        (self_attn): MultiheadAttention(
          (out_proj): NonDynamicallyQuantizableLinear(in_features=120, out_features=120, bias=True)
        )
        (q_projection): Sequential(
          (0): Linear(in_features=120, out_features=120, bias=True)
          (1): ReLU()
          (2): Linear(in_features=120, out_features=120, bias=True)
        )
        (norm1_local): BatchNorm1d(120, eps=1e-05, momentum=0.1, affine=True, track_running_stats=True)
        (norm1_kv): BatchNorm1d(120, eps=1e-05, momentum=0.1, affine=True, track_running_stats=True)
        (norm1_attn): BatchNorm1d(120, eps=1e-05, momentum=0.1, affine=True, track_running_stats=True)
        (dropout_local): Dropout(p=0.0, inplace=False)
        (dropout_kv): Dropout(p=0.0, inplace=False)
        (dropout_attn): Dropout(p=0.0, inplace=False)
        (ff_linear1): Linear(in_features=120, out_features=240, bias=True)
        (ff_linear2): Linear(in_features=240, out_features=120, bias=True)
        (act_fn_ff): ReLU()
        (norm2): BatchNorm1d(120, eps=1e-05, momentum=0.1, affine=True, track_running_stats=True)
        (ff_dropout1): Dropout(p=0.0, inplace=False)
        (ff_dropout2): Dropout(p=0.0, inplace=False)
      )
    )
    (post_mp): GNNGraphHead(
      (layer_post_mp): MLP(
        (model): Sequential(
          (0): Linear(
            (model): Linear(120, 10, bias=True)
          )
        )
      )
    )
  )
)
2025-08-23 09:07:31,281 - INFO - Number of parameters: 371,650
2025-08-23 09:07:31,281 - INFO - Starting optimized training: 2025-08-23 09:07:31.281332
2025-08-23 09:07:31,456 - INFO - [*] Loaded dataset 'peptides-functional' from 'OGB':
2025-08-23 09:07:31,456 - INFO -   Data(edge_index=[2, 4773974], edge_attr=[4773974, 3], x=[2344859, 9], y=[15535, 10])
…
