…
/data/coml-deepcmb/lady6973/py310_new_venv/lib/python3.9/site-packages/nni/nas/nn/pytorch/choice.py:252: UserWarning: "key" is deprecated. Assuming label.
  warnings.warn(f'"key" is deprecated. Assuming label.')
2025-07-04 21:47:00,192 - INFO - Created model type: <class 'torch_geometric.graphgym.model_builder.GraphGymModule'>
2025-07-04 21:47:00,192 - INFO - Inner model type: <class 'graphgps.network.NAS_model.NASModel'>
2025-07-04 21:47:00,192 - INFO - Inner model has get_darts_model: True
2025-07-04 21:47:00,195 - INFO - GraphGymModule(
  (model): NASModel(
    (encoder): FeatureEncoder(
      (node_encoder): Concat2NodeEncoder(
        (encoder1): AtomEncoder(
          (atom_embedding_list): ModuleList(
            (0): Embedding(119, 364)
            (1): Embedding(5, 364)
            (2-3): 2 x Embedding(12, 364)
            (4): Embedding(10, 364)
            (5-6): 2 x Embedding(6, 364)
            (7-8): 2 x Embedding(2, 364)
          )
        )
        (encoder2): RWSENodeEncoder(
          (raw_norm): BatchNorm1d(16, eps=1e-05, momentum=0.1, affine=True, track_running_stats=True)
          (pe_encoder): Linear(in_features=16, out_features=20, bias=True)
        )
      )
      (edge_encoder): BondEncoder(
        (bond_embedding_list): ModuleList(
          (0): Embedding(5, 384)
          (1): Embedding(6, 384)
          (2): Embedding(2, 384)
        )
      )
    )
    (darts_layers): ModuleList(
      (0): NASLayer(
        summary: dim_h=384, global_model_type=Transformer, num_heads=4, num_experts=3, routing_mode=nas, is_last_layer=False
        (expert_dropout): Dropout(p=0.3, inplace=False)
        (kv_model): ModuleDict(
          (0): GINEConv(nn=Sequential(
            (0): Linear(384, 384, bias=True)
            (1): ReLU()
            (2): Linear(384, 384, bias=True)
          ))
          (1): GatedGCNLayer()
          (2): GATv2Conv(384, 96, heads=4)
        )
        (input_choice): InputChoice(n_candidates=3, n_chosen=1, reduction='sum', label='gnn_mixture_choice_group_0')
        (self_attn): MultiheadAttention(
          (out_proj): NonDynamicallyQuantizableLinear(in_features=384, out_features=384, bias=True)
        )
        (norm1_kv): BatchNorm1d(384, eps=1e-05, momentum=0.1, affine=True, track_running_stats=True)
        (norm1_attn): BatchNorm1d(384, eps=1e-05, momentum=0.1, affine=True, track_running_stats=True)
        (dropout_kv): Dropout(p=0.2, inplace=False)
        (dropout_attn): Dropout(p=0.2, inplace=False)
        (ff_linear1): Linear(in_features=384, out_features=768, bias=True)
        (ff_linear2): Linear(in_features=768, out_features=384, bias=True)
        (act_fn_ff): ReLU()
        (norm2): BatchNorm1d(384, eps=1e-05, momentum=0.1, affine=True, track_running_stats=True)
        (ff_dropout1): Dropout(p=0.2, inplace=False)
        (ff_dropout2): Dropout(p=0.2, inplace=False)
      )
      (1): NASLayer(
        summary: dim_h=384, global_model_type=Transformer, num_heads=4, num_experts=3, routing_mode=nas, is_last_layer=False
        (expert_dropout): Dropout(p=0.3, inplace=False)
        (kv_model): ModuleDict(
          (0): GINEConv(nn=Sequential(
            (0): Linear(384, 384, bias=True)
            (1): ReLU()
            (2): Linear(384, 384, bias=True)
          ))
          (1): GatedGCNLayer()
          (2): GATv2Conv(384, 96, heads=4)
        )
        (input_choice): InputChoice(n_candidates=3, n_chosen=1, reduction='sum', label='gnn_mixture_choice_group_1')
        (self_attn): MultiheadAttention(
          (out_proj): NonDynamicallyQuantizableLinear(in_features=384, out_features=384, bias=True)
        )
        (norm1_kv): BatchNorm1d(384, eps=1e-05, momentum=0.1, affine=True, track_running_stats=True)
        (norm1_attn): BatchNorm1d(384, eps=1e-05, momentum=0.1, affine=True, track_running_stats=True)
        (dropout_kv): Dropout(p=0.2, inplace=False)
        (dropout_attn): Dropout(p=0.2, inplace=False)
        (ff_linear1): Linear(in_features=384, out_features=768, bias=True)
        (ff_linear2): Linear(in_features=768, out_features=384, bias=True)
        (act_fn_ff): ReLU()
        (norm2): BatchNorm1d(384, eps=1e-05, momentum=0.1, affine=True, track_running_stats=True)
        (ff_dropout1): Dropout(p=0.2, inplace=False)
        (ff_dropout2): Dropout(p=0.2, inplace=False)
      )
      (2): NASLayer(
        summary: dim_h=384, global_model_type=Transformer, num_heads=4, num_experts=3, routing_mode=nas, is_last_layer=False
        (expert_dropout): Dropout(p=0.3, inplace=False)
        (kv_model): ModuleDict(
          (0): GINEConv(nn=Sequential(
            (0): Linear(384, 384, bias=True)
            (1): ReLU()
            (2): Linear(384, 384, bias=True)
          ))
          (1): GatedGCNLayer()
          (2): GATv2Conv(384, 96, heads=4)
        )
        (input_choice): InputChoice(n_candidates=3, n_chosen=1, reduction='sum', label='gnn_mixture_choice_group_2')
        (self_attn): MultiheadAttention(
          (out_proj): NonDynamicallyQuantizableLinear(in_features=384, out_features=384, bias=True)
        )
        (norm1_kv): BatchNorm1d(384, eps=1e-05, momentum=0.1, affine=True, track_running_stats=True)
        (norm1_attn): BatchNorm1d(384, eps=1e-05, momentum=0.1, affine=True, track_running_stats=True)
        (dropout_kv): Dropout(p=0.2, inplace=False)
        (dropout_attn): Dropout(p=0.2, inplace=False)
        (ff_linear1): Linear(in_features=384, out_features=768, bias=True)
        (ff_linear2): Linear(in_features=768, out_features=384, bias=True)
        (act_fn_ff): ReLU()
        (norm2): BatchNorm1d(384, eps=1e-05, momentum=0.1, affine=True, track_running_stats=True)
        (ff_dropout1): Dropout(p=0.2, inplace=False)
        (ff_dropout2): Dropout(p=0.2, inplace=False)
      )
      (3): NASLayer(
        summary: dim_h=384, global_model_type=Transformer, num_heads=4, num_experts=3, routing_mode=nas, is_last_layer=False
        (expert_dropout): Dropout(p=0.3, inplace=False)
        (kv_model): ModuleDict(
          (0): GINEConv(nn=Sequential(
            (0): Linear(384, 384, bias=True)
            (1): ReLU()
            (2): Linear(384, 384, bias=True)
          ))
          (1): GatedGCNLayer()
          (2): GATv2Conv(384, 96, heads=4)
        )
        (input_choice): InputChoice(n_candidates=3, n_chosen=1, reduction='sum', label='gnn_mixture_choice_group_3')
        (self_attn): MultiheadAttention(
          (out_proj): NonDynamicallyQuantizableLinear(in_features=384, out_features=384, bias=True)
        )
        (norm1_kv): BatchNorm1d(384, eps=1e-05, momentum=0.1, affine=True, track_running_stats=True)
        (norm1_attn): BatchNorm1d(384, eps=1e-05, momentum=0.1, affine=True, track_running_stats=True)
        (dropout_kv): Dropout(p=0.2, inplace=False)
        (dropout_attn): Dropout(p=0.2, inplace=False)
        (ff_linear1): Linear(in_features=384, out_features=768, bias=True)
        (ff_linear2): Linear(in_features=768, out_features=384, bias=True)
        (act_fn_ff): ReLU()
        (norm2): BatchNorm1d(384, eps=1e-05, momentum=0.1, affine=True, track_running_stats=True)
        (ff_dropout1): Dropout(p=0.2, inplace=False)
        (ff_dropout2): Dropout(p=0.2, inplace=False)
      )
    )
    (darts_sequential): Sequential(
      (0): NASLayer(
        summary: dim_h=384, global_model_type=Transformer, num_heads=4, num_experts=3, routing_mode=nas, is_last_layer=False
        (expert_dropout): Dropout(p=0.3, inplace=False)
        (kv_model): ModuleDict(
          (0): GINEConv(nn=Sequential(
            (0): Linear(384, 384, bias=True)
            (1): ReLU()
            (2): Linear(384, 384, bias=True)
          ))
          (1): GatedGCNLayer()
          (2): GATv2Conv(384, 96, heads=4)
        )
        (input_choice): InputChoice(n_candidates=3, n_chosen=1, reduction='sum', label='gnn_mixture_choice_group_0')
        (self_attn): MultiheadAttention(
          (out_proj): NonDynamicallyQuantizableLinear(in_features=384, out_features=384, bias=True)
        )
        (norm1_kv): BatchNorm1d(384, eps=1e-05, momentum=0.1, affine=True, track_running_stats=True)
        (norm1_attn): BatchNorm1d(384, eps=1e-05, momentum=0.1, affine=True, track_running_stats=True)
        (dropout_kv): Dropout(p=0.2, inplace=False)
        (dropout_attn): Dropout(p=0.2, inplace=False)
        (ff_linear1): Linear(in_features=384, out_features=768, bias=True)
        (ff_linear2): Linear(in_features=768, out_features=384, bias=True)
        (act_fn_ff): ReLU()
        (norm2): BatchNorm1d(384, eps=1e-05, momentum=0.1, affine=True, track_running_stats=True)
        (ff_dropout1): Dropout(p=0.2, inplace=False)
        (ff_dropout2): Dropout(p=0.2, inplace=False)
      )
      (1): NASLayer(
        summary: dim_h=384, global_model_type=Transformer, num_heads=4, num_experts=3, routing_mode=nas, is_last_layer=False
        (expert_dropout): Dropout(p=0.3, inplace=False)
        (kv_model): ModuleDict(
          (0): GINEConv(nn=Sequential(
            (0): Linear(384, 384, bias=True)
            (1): ReLU()
            (2): Linear(384, 384, bias=True)
          ))
          (1): GatedGCNLayer()
          (2): GATv2Conv(384, 96, heads=4)
        )
        (input_choice): InputChoice(n_candidates=3, n_chosen=1, reduction='sum', label='gnn_mixture_choice_group_1')
        (self_attn): MultiheadAttention(
          (out_proj): NonDynamicallyQuantizableLinear(in_features=384, out_features=384, bias=True)
        )
        (norm1_kv): BatchNorm1d(384, eps=1e-05, momentum=0.1, affine=True, track_running_stats=True)
        (norm1_attn): BatchNorm1d(384, eps=1e-05, momentum=0.1, affine=True, track_running_stats=True)
        (dropout_kv): Dropout(p=0.2, inplace=False)
        (dropout_attn): Dropout(p=0.2, inplace=False)
        (ff_linear1): Linear(in_features=384, out_features=768, bias=True)
        (ff_linear2): Linear(in_features=768, out_features=384, bias=True)
        (act_fn_ff): ReLU()
        (norm2): BatchNorm1d(384, eps=1e-05, momentum=0.1, affine=True, track_running_stats=True)
        (ff_dropout1): Dropout(p=0.2, inplace=False)
        (ff_dropout2): Dropout(p=0.2, inplace=False)
      )
      (2): NASLayer(
        summary: dim_h=384, global_model_type=Transformer, num_heads=4, num_experts=3, routing_mode=nas, is_last_layer=False
        (expert_dropout): Dropout(p=0.3, inplace=False)
        (kv_model): ModuleDict(
          (0): GINEConv(nn=Sequential(
            (0): Linear(384, 384, bias=True)
            (1): ReLU()
            (2): Linear(384, 384, bias=True)
          ))
          (1): GatedGCNLayer()
          (2): GATv2Conv(384, 96, heads=4)
        )
        (input_choice): InputChoice(n_candidates=3, n_chosen=1, reduction='sum', label='gnn_mixture_choice_group_2')
        (self_attn): MultiheadAttention(
          (out_proj): NonDynamicallyQuantizableLinear(in_features=384, out_features=384, bias=True)
        )
        (norm1_kv): BatchNorm1d(384, eps=1e-05, momentum=0.1, affine=True, track_running_stats=True)
        (norm1_attn): BatchNorm1d(384, eps=1e-05, momentum=0.1, affine=True, track_running_stats=True)
        (dropout_kv): Dropout(p=0.2, inplace=False)
        (dropout_attn): Dropout(p=0.2, inplace=False)
        (ff_linear1): Linear(in_features=384, out_features=768, bias=True)
        (ff_linear2): Linear(in_features=768, out_features=384, bias=True)
        (act_fn_ff): ReLU()
        (norm2): BatchNorm1d(384, eps=1e-05, momentum=0.1, affine=True, track_running_stats=True)
        (ff_dropout1): Dropout(p=0.2, inplace=False)
        (ff_dropout2): Dropout(p=0.2, inplace=False)
      )
      (3): NASLayer(
        summary: dim_h=384, global_model_type=Transformer, num_heads=4, num_experts=3, routing_mode=nas, is_last_layer=False
        (expert_dropout): Dropout(p=0.3, inplace=False)
        (kv_model): ModuleDict(
          (0): GINEConv(nn=Sequential(
            (0): Linear(384, 384, bias=True)
            (1): ReLU()
            (2): Linear(384, 384, bias=True)
          ))
          (1): GatedGCNLayer()
          (2): GATv2Conv(384, 96, heads=4)
        )
        (input_choice): InputChoice(n_candidates=3, n_chosen=1, reduction='sum', label='gnn_mixture_choice_group_3')
        (self_attn): MultiheadAttention(
          (out_proj): NonDynamicallyQuantizableLinear(in_features=384, out_features=384, bias=True)
        )
        (norm1_kv): BatchNorm1d(384, eps=1e-05, momentum=0.1, affine=True, track_running_stats=True)
        (norm1_attn): BatchNorm1d(384, eps=1e-05, momentum=0.1, affine=True, track_running_stats=True)
        (dropout_kv): Dropout(p=0.2, inplace=False)
        (dropout_attn): Dropout(p=0.2, inplace=False)
        (ff_linear1): Linear(in_features=384, out_features=768, bias=True)
        (ff_linear2): Linear(in_features=768, out_features=384, bias=True)
        (act_fn_ff): ReLU()
        (norm2): BatchNorm1d(384, eps=1e-05, momentum=0.1, affine=True, track_running_stats=True)
        (ff_dropout1): Dropout(p=0.2, inplace=False)
        (ff_dropout2): Dropout(p=0.2, inplace=False)
      )
    )
    (post_mp): GNNGraphHead(
      (layer_post_mp): MLP(
        (model): Sequential(
          (0): Linear(
            (model): Linear(384, 128, bias=True)
          )
        )
      )
    )
  )
)
2025-07-04 21:47:00,198 - INFO - Number of parameters: 10,777,820
2025-07-04 21:47:00,198 - INFO - Starting optimized training: 2025-07-04 21:47:00.198295
2025-07-04 21:48:06,653 - INFO - [*] Loaded dataset 'ogbg-molpcba' from 'OGB':
/data/coml-deepcmb/lady6973/py310_new_venv/lib/python3.9/site-packages/torch_geometric/data/in_memory_d
…
