…
/data/coml-deepcmb/lady6973/py310_new_venv/lib/python3.9/site-packages/nni/nas/nn/pytorch/choice.py:252: UserWarning: "key" is deprecated. Assuming label.
  warnings.warn(f'"key" is deprecated. Assuming label.')
2025-08-16 21:53:14,958 - INFO - Created model type: <class 'torch_geometric.graphgym.model_builder.GraphGymModule'>
2025-08-16 21:53:14,959 - INFO - Inner model type: <class 'graphgps.network.NAS_model_edge.NASModelEdge'>
2025-08-16 21:53:14,959 - INFO - Inner model has get_darts_model: True
2025-08-16 21:53:14,964 - INFO - GraphGymModule(
  (model): NASModelEdge(
    (encoder): FeatureEncoder(
      (node_encoder): LapPENodeEncoder(
        (linear_x): Linear(in_features=7, out_features=32, bias=True)
        (linear_A): Linear(in_features=2, out_features=32, bias=True)
        (pe_encoder): Sequential(
          (0): ReLU()
          (1): Linear(in_features=32, out_features=16, bias=True)
          (2): ReLU()
        )
      )
      (edge_encoder): DummyEdgeEncoder(
        (encoder): Embedding(1, 48)
      )
    )
    (darts_layers): ModuleList(
      (0): NASLayer(
        summary: dim_h=48, global_model_type=SparseTransformer, num_heads=8, num_experts=3, routing_mode=nas, is_last_layer=False
        (expert_dropout): Dropout(p=0.3, inplace=False)
        (kv_model): ModuleDict(
          (0): GINEConv(nn=Sequential(
            (0): Linear(48, 48, bias=True)
            (1): ReLU()
            (2): Linear(48, 48, bias=True)
          ))
          (1): GatedGCNLayer()
          (2): GATv2Conv(48, 6, heads=8)
        )
        (input_choice): InputChoice(n_candidates=3, n_chosen=1, reduction='sum', label='gnn_mixture_choice_group_0')
        (self_attn): SparseGraphAttention(
          (W_k): Linear(in_features=48, out_features=48, bias=True)
          (W_v): Linear(in_features=48, out_features=48, bias=True)
          (W_o): Linear(in_features=48, out_features=48, bias=True)
        )
        (norm1_kv): BatchNorm1d(48, eps=1e-05, momentum=0.1, affine=True, track_running_stats=True)
        (norm1_attn): BatchNorm1d(48, eps=1e-05, momentum=0.1, affine=True, track_running_stats=True)
        (dropout_kv): Dropout(p=0.0, inplace=False)
        (dropout_attn): Dropout(p=0.0, inplace=False)
        (ff_linear1): Linear(in_features=48, out_features=96, bias=True)
        (ff_linear2): Linear(in_features=96, out_features=48, bias=True)
        (act_fn_ff): ReLU()
        (norm2): BatchNorm1d(48, eps=1e-05, momentum=0.1, affine=True, track_running_stats=True)
        (ff_dropout1): Dropout(p=0.0, inplace=False)
        (ff_dropout2): Dropout(p=0.0, inplace=False)
        (edge_processor): Sequential(
          (0): Linear(in_features=48, out_features=48, bias=True)
          (1): ReLU()
          (2): Dropout(p=0.0, inplace=False)
          (3): Linear(in_features=48, out_features=48, bias=True)
          (4): Dropout(p=0.0, inplace=False)
        )
      )
      (1): NASLayer(
        summary: dim_h=48, global_model_type=SparseTransformer, num_heads=8, num_experts=3, routing_mode=nas, is_last_layer=False
        (expert_dropout): Dropout(p=0.3, inplace=False)
        (kv_model): ModuleDict(
          (0): GINEConv(nn=Sequential(
            (0): Linear(48, 48, bias=True)
            (1): ReLU()
            (2): Linear(48, 48, bias=True)
          ))
          (1): GatedGCNLayer()
          (2): GATv2Conv(48, 6, heads=8)
        )
        (input_choice): InputChoice(n_candidates=3, n_chosen=1, reduction='sum', label='gnn_mixture_choice_group_1')
        (self_attn): SparseGraphAttention(
          (W_k): Linear(in_features=48, out_features=48, bias=True)
          (W_v): Linear(in_features=48, out_features=48, bias=True)
          (W_o): Linear(in_features=48, out_features=48, bias=True)
        )
        (norm1_kv): BatchNorm1d(48, eps=1e-05, momentum=0.1, affine=True, track_running_stats=True)
        (norm1_attn): BatchNorm1d(48, eps=1e-05, momentum=0.1, affine=True, track_running_stats=True)
        (dropout_kv): Dropout(p=0.0, inplace=False)
        (dropout_attn): Dropout(p=0.0, inplace=False)
        (ff_linear1): Linear(in_features=48, out_features=96, bias=True)
        (ff_linear2): Linear(in_features=96, out_features=48, bias=True)
        (act_fn_ff): ReLU()
        (norm2): BatchNorm1d(48, eps=1e-05, momentum=0.1, affine=True, track_running_stats=True)
        (ff_dropout1): Dropout(p=0.0, inplace=False)
        (ff_dropout2): Dropout(p=0.0, inplace=False)
        (edge_processor): Sequential(
          (0): Linear(in_features=48, out_features=48, bias=True)
          (1): ReLU()
          (2): Dropout(p=0.0, inplace=False)
          (3): Linear(in_features=48, out_features=48, bias=True)
          (4): Dropout(p=0.0, inplace=False)
        )
      )
      (2): NASLayer(
        summary: dim_h=48, global_model_type=SparseTransformer, num_heads=8, num_experts=3, routing_mode=nas, is_last_layer=False
        (expert_dropout): Dropout(p=0.3, inplace=False)
        (kv_model): ModuleDict(
          (0): GINEConv(nn=Sequential(
            (0): Linear(48, 48, bias=True)
            (1): ReLU()
            (2): Linear(48, 48, bias=True)
          ))
          (1): GatedGCNLayer()
          (2): GATv2Conv(48, 6, heads=8)
        )
        (input_choice): InputChoice(n_candidates=3, n_chosen=1, reduction='sum', label='gnn_mixture_choice_group_2')
        (self_attn): SparseGraphAttention(
          (W_k): Linear(in_features=48, out_features=48, bias=True)
          (W_v): Linear(in_features=48, out_features=48, bias=True)
          (W_o): Linear(in_features=48, out_features=48, bias=True)
        )
        (norm1_kv): BatchNorm1d(48, eps=1e-05, momentum=0.1, affine=True, track_running_stats=True)
        (norm1_attn): BatchNorm1d(48, eps=1e-05, momentum=0.1, affine=True, track_running_stats=True)
        (dropout_kv): Dropout(p=0.0, inplace=False)
        (dropout_attn): Dropout(p=0.0, inplace=False)
        (ff_linear1): Linear(in_features=48, out_features=96, bias=True)
        (ff_linear2): Linear(in_features=96, out_features=48, bias=True)
        (act_fn_ff): ReLU()
        (norm2): BatchNorm1d(48, eps=1e-05, momentum=0.1, affine=True, track_running_stats=True)
        (ff_dropout1): Dropout(p=0.0, inplace=False)
        (ff_dropout2): Dropout(p=0.0, inplace=False)
        (edge_processor): Sequential(
          (0): Linear(in_features=48, out_features=48, bias=True)
          (1): ReLU()
          (2): Dropout(p=0.0, inplace=False)
          (3): Linear(in_features=48, out_features=48, bias=True)
          (4): Dropout(p=0.0, inplace=False)
        )
      )
      (3): NASLayer(
        summary: dim_h=48, global_model_type=SparseTransformer, num_heads=8, num_experts=3, routing_mode=nas, is_last_layer=False
        (expert_dropout): Dropout(p=0.3, inplace=False)
        (kv_model): ModuleDict(
          (0): GINEConv(nn=Sequential(
            (0): Linear(48, 48, bias=True)
            (1): ReLU()
            (2): Linear(48, 48, bias=True)
          ))
          (1): GatedGCNLayer()
          (2): GATv2Conv(48, 6, heads=8)
        )
        (input_choice): InputChoice(n_candidates=3, n_chosen=1, reduction='sum', label='gnn_mixture_choice_group_3')
        (self_attn): SparseGraphAttention(
          (W_k): Linear(in_features=48, out_features=48, bias=True)
          (W_v): Linear(in_features=48, out_features=48, bias=True)
          (W_o): Linear(in_features=48, out_features=48, bias=True)
        )
        (norm1_kv): BatchNorm1d(48, eps=1e-05, momentum=0.1, affine=True, track_running_stats=True)
        (norm1_attn): BatchNorm1d(48, eps=1e-05, momentum=0.1, affine=True, track_running_stats=True)
        (dropout_kv): Dropout(p=0.0, inplace=False)
        (dropout_attn): Dropout(p=0.0, inplace=False)
        (ff_linear1): Linear(in_features=48, out_features=96, bias=True)
        (ff_linear2): Linear(in_features=96, out_features=48, bias=True)
        (act_fn_ff): ReLU()
        (norm2): BatchNorm1d(48, eps=1e-05, momentum=0.1, affine=True, track_running_stats=True)
        (ff_dropout1): Dropout(p=0.0, inplace=False)
        (ff_dropout2): Dropout(p=0.0, inplace=False)
        (edge_processor): Sequential(
          (0): Linear(in_features=48, out_features=48, bias=True)
          (1): ReLU()
          (2): Dropout(p=0.0, inplace=False)
          (3): Linear(in_features=48, out_features=48, bias=True)
          (4): Dropout(p=0.0, inplace=False)
        )
      )
      (4): NASLayer(
        summary: dim_h=48, global_model_type=SparseTransformer, num_heads=8, num_experts=3, routing_mode=nas, is_last_layer=False
        (expert_dropout): Dropout(p=0.3, inplace=False)
        (kv_model): ModuleDict(
          (0): GINEConv(nn=Sequential(
            (0): Linear(48, 48, bias=True)
            (1): ReLU()
            (2): Linear(48, 48, bias=True)
          ))
          (1): GatedGCNLayer()
          (2): GATv2Conv(48, 6, heads=8)
        )
        (input_choice): InputChoice(n_candidates=3, n_chosen=1, reduction='sum', label='gnn_mixture_choice_group_4')
        (self_attn): SparseGraphAttention(
          (W_k): Linear(in_features=48, out_features=48, bias=True)
          (W_v): Linear(in_features=48, out_features=48, bias=True)
          (W_o): Linear(in_features=48, out_features=48, bias=True)
        )
        (norm1_kv): BatchNorm1d(48, eps=1e-05, momentum=0.1, affine=True, track_running_stats=True)
        (norm1_attn): BatchNorm1d(48, eps=1e-05, momentum=0.1, affine=True, track_running_stats=True)
        (dropout_kv): Dropout(p=0.0, inplace=False)
        (dropout_attn): Dropout(p=0.0, inplace=False)
        (ff_linear1): Linear(in_features=48, out_features=96, bias=True)
        (ff_linear2): Linear(in_features=96, out_features=48, bias=True)
        (act_fn_ff): ReLU()
        (norm2): BatchNorm1d(48, eps=1e-05, momentum=0.1, affine=True, track_running_stats=True)
        (ff_dropout1): Dropout(p=0.0, inplace=False)
        (ff_dropout2): Dropout(p=0.0, inplace=False)
        (edge_processor): Sequential(
          (0): Linear(in_features=48, out_features=48, bias=True)
          (1): ReLU()
          (2): Dropout(p=0.0, inplace=False)
          (3): Linear(in_features=48, out_features=48, bias=True)
          (4): Dropout(p=0.0, inplace=False)
        )
      )
      (5): NASLayer(
        summary: dim_h=48, global_model_type=SparseTransformer, num_heads=8, num_experts=3, routing_mode=nas, is_last_layer=False
        (expert_dropout): Dropout(p=0.3, inplace=False)
        (kv_model): ModuleDict(
          (0): GINEConv(nn=Sequential(
            (0): Linear(48, 48, bias=True)
            (1): ReLU()
            (2): Linear(48, 48, bias=True)
          ))
          (1): GatedGCNLayer()
          (2): GATv2Conv(48, 6, heads=8)
        )
        (input_choice): InputChoice(n_candidates=3, n_chosen=1, reduction='sum', label='gnn_mixture_choice_group_5')
        (self_attn): SparseGraphAttention(
          (W_k): Linear(in_features=48, out_features=48, bias=True)
          (W_v): Linear(in_features=48, out_features=48, bias=True)
          (W_o): Linear(in_features=48, out_features=48, bias=True)
        )
        (norm1_kv): BatchNorm1d(48, eps=1e-05, momentum=0.1, affine=True, track_running_stats=True)
        (norm1_attn): BatchNorm1d(48, eps=1e-05, momentum=0.1, affine=True, track_running_stats=True)
        (dropout_kv): Dropout(p=0.0, inplace=False)
        (dropout_attn): Dropout(p=0.0, inplace=False)
        (ff_linear1): Linear(in_features=48, out_features=96, bias=True)
        (ff_linear2): Linear(in_features=96, out_features=48, bias=True)
        (act_fn_ff): ReLU()
        (norm2): BatchNorm1d(48, eps=1e-05, momentum=0.1, affine=True, track_running_stats=True)
        (ff_dropout1): Dropout(p=0.0, inplace=False)
        (ff_dropout2): Dropout(p=0.0, inplace=False)
        (edge_processor): Sequential(
          (0): Linear(in_features=48, out_features=48, bias=True)
          (1): ReLU()
          (2): Dropout(p=0.0, inplace=False)
          (3): Linear(in_features=48, out_features=48, bias=True)
          (4): Dropout(p=0.0, inplace=False)
        )
      )
      (6): NASLayer(
        summary: dim_h=48, global_model_type=SparseTransformer, num_heads=8, num_experts=3, routing_mode=nas, is_last_layer=False
        (expert_dropout): Dropout(p=0.3, inplace=False)
        (kv_model): ModuleDict(
          (0): GINEConv(nn=Sequential(
            (0): Linear(48, 48, bias=True)
            (1): ReLU()
            (2): Linear(48, 48, bias=True)
          ))
          (1): GatedGCNLayer()
          (2): GATv2Conv(48, 6, heads=8)
        )
        (input_choice): InputChoice(n_candidates=3, n_chosen=1, reduction='sum', label='gnn_mixture_choice_group_6')
        (self_attn): SparseGraphAttention(
          (W_k): Linear(in_features=48, out_features=48, bias=True)
          (W_v): Linear(in_features=48, out_features=48, bias=True)
          (W_o): Linear(in_features=48, out_features=48, bias=True)
        )
        (norm1_kv): BatchNorm1d(48, eps=1e-05, momentum=0.1, affine=True, track_running_stats=True)
        (norm1_attn): BatchNorm1d(48, eps=1e-05, momentum=0.1, affine=True, track_running_stats=True)
        (dropout_kv): Dropout(p=0.0, inplace=False)
        (dropout_attn): Dropout(p=0.0, inplace=False)
        (ff_linear1): Linear(in_features=48, out_features=96, bias=True)
        (ff_linear2): Linear(in_features=96, out_features=48, bias=True)
        (act_fn_ff): ReLU()
        (norm2): BatchNorm1d(48, eps=1e-05, momentum=0.1, affine=True, track_running_stats=True)
        (ff_dropout1): Dropout(p=0.0, inplace=False)
        (ff_dropout2): Dropout(p=0.0, inplace=False)
        (edge_processor): Sequential(
          (0): Linear(in_features=48, out_features=48, bias=True)
          (1): ReLU()
          (2): Dropout(p=0.0, inplace=False)
          (3): Linear(in_features=48, out_features=48, bias=True)
          (4): Dropout(p=0.0, inplace=False)
        )
      )
      (7): NASLayer(
        summary: dim_h=48, global_model_type=SparseTransformer, num_heads=8, num_experts=3, routing_mode=nas, is_last_layer=False
        (expert_dropout): Dropout(p=0.3, inplace=False)
        (kv_model): ModuleDict(
          (0): GINEConv(nn=Sequential(
            (0): Linear(48, 48, bias=True)
            (1): ReLU()
            (2): Linear(48, 48, bias=True)
          ))
          (1): GatedGCNLayer()
          (2): GATv2Conv(48, 6, heads=8)
        )
        (input_choice): InputChoice(n_candidates=3, n_chosen=1, reduction='sum', label='gnn_mixture_choice_group_7')
        (self_attn): SparseGraphAttention(
          (W_k): Linear(in_features=48, out_features=48, bias=True)
          (W_v): Linear(in_features=48, out_features=48, bias=True)
          (W_o): Linear(in_features=48, out_features=48, bias=True)
        )
        (norm1_kv): BatchNorm1d(48, eps=1e-05, momentum=0.1, affine=True, track_running_stats=True)
        (norm1_attn): BatchNorm1d(48, eps=1e-05, momentum=0.1, affine=True, track_running_stats=True)
        (dropout_kv): Dropout(p=0.0, inplace=False)
        (dropout_attn): Dropout(p=0.0, inplace=False)
        (ff_linear1): Linear(in_features=48, out_features=96, bias=True)
        (ff_linear2): Linear(in_features=96, out_features=48, bias=True)
        (act_fn_ff): ReLU()
        (norm2): BatchNorm1d(48, eps=1e-05, momentum=0.1, affine=True, track_running_stats=True)
        (ff_dropout1): Dropout(p=0.0, inplace=False)
        (ff_dropout2): Dropout(p=0.0, inplace=False)
        (edge_processor): Sequential(
          (0): Linear(in_features=48, out_features=48, bias=True)
          (1): ReLU()
          (2): Dropout(p=0.0, inplace=False)
          (3): Linear(in_features=48, out_features=48, bias=True)
          (4): Dropout(p=0.0, inplace=False)
        )
      )
      (8): NASLayer(
        summary: dim_h=48, global_model_type=SparseTransformer, num_heads=8, num_experts=3, routing_mode=nas, is_last_layer=False
        (expert_dropout): Dropout(p=0.3, inplace=False)
        (kv_model): ModuleDict(
          (0): GINEConv(nn=Sequential(
            (0): Linear(48, 48, bias=True)
            (1): ReLU()
            (2): Linear(48, 48, bias=True)
          ))
          (1): GatedGCNLayer()
          (2): GATv2Conv(48, 6, heads=8)
        )
        (input_choice): InputChoice(n_candidates=3, n_chosen=1, reduction='sum', label='gnn_mixture_choice_group_8')
        (self_attn): SparseGraphAttention(
          (W_k): Linear(in_features=48, out_features=48, bias=True)
          (W_v): Linear(in_features=48, out_features=48, bias=True)
          (W_o): Linear(in_features=48, out_features=48, bias=True)
        )
        (norm1_kv): BatchNorm1d(48, eps=1e-05, momentum=0.1, affine=True, track_running_stats=True)
        (norm1_attn): BatchNorm1d(48, eps=1e-05, momentum=0.1, affine=True, track_running_stats=True)
        (dropout_kv): Dropout(p=0.0, inplace=False)
        (dropout_attn): Dropout(p=0.0, inplace=False)
        (ff_linear1): Linear(in_features=48, out_features=96, bias=True)
        (ff_linear2): Linear(in_features=96, out_features=48, bias=True)
        (act_fn_ff): ReLU()
        (norm2): BatchNorm1d(48, eps=1e-05, momentum=0.1, affine=True, track_running_stats=True)
        (ff_dropout1): Dropout(p=0.0, inplace=False)
        (ff_dropout2): Dropout(p=0.0, inplace=False)
        (edge_processor): Sequential(
          (0): Linear(in_features=48, out_features=48, bias=True)
          (1): ReLU()
          (2): Dropout(p=0.0, inplace=False)
          (3): Linear(in_features=48, out_features=48, bias=True)
          (4): Dropout(p=0.0, inplace=False)
        )
      )
      (9): NASLayer(
        summary: dim_h=48, global_model_type=SparseTransformer, num_heads=8, num_experts=3, routing_mode=nas, is_last_layer=False
        (expert_dropout): Dropout(p=0.3, inplace=False)
        (kv_model): ModuleDict(
          (0): GINEConv(nn=Sequential(
            (0): Linear(48, 48, bias=True)
            (1): ReLU()
            (2): Linear(48, 48, bias=True)
          ))
          (1): GatedGCNLayer()
          (2): GATv2Conv(48, 6, heads=8)
        )
        (input_choice): InputChoice(n_candidates=3, n_chosen=1, reduction='sum', label='gnn_mixture_choice_group_9')
        (self_attn): SparseGraphAttention(
          (W_k): Linear(in_features=48, out_features=48, bias=True)
          (W_v): Linear(in_features=48, out_features=48, bias=True)
          (W_o): Linear(in_features=48, out_features=48, bias=True)
        )
        (norm1_kv): BatchNorm1d(48, eps=1e-05, momentum=0.1, affine=True, track_running_stats=True)
        (norm1_attn): BatchNorm1d(48, eps=1e-05, momentum=0.1, affine=True, track_running_stats=True)
        (dropout_kv): Dropout(p=0.0, inplace=False)
        (dropout_attn): Dropout(p=0.0, inplace=False)
        (ff_linear1): Linear(in_features=48, out_features=96, bias=True)
        (ff_linear2): Linear(in_features=96, out_features=48, bias=True)
        (act_fn_ff): ReLU()
        (norm2): BatchNorm1d(48, eps=1e-05, momentum=0.1, affine=True, track_running_stats=True)
        (ff_dropout1): Dropout(p=0.0, inplace=False)
        (ff_dropout2): Dropout(p=0.0, inplace=False)
        (edge_processor): Sequential(
          (0): Linear(in_features=48, out_features=48, bias=True)
          (1): ReLU()
          (2): Dropout(p=0.0, inplace=False)
          (3): Linear(in_features=48, out_features=48, bias=True)
          (4): Dropout(p=0.0, inplace=False)
        )
      )
      (10): NASLayer(
        summary: dim_h=48, global_model_type=SparseTransformer, num_heads=8, num_experts=3, routing_mode=nas, is_last_layer=False
        (expert_dropout): Dropout(p=0.3, inplace=False)
        (kv_model): ModuleDict(
          (0): GINEConv(nn=Sequential(
            (0): Linear(48, 48, bias=True)
            (1): ReLU()
            (2): Linear(48, 48, bias=True)
          ))
          (1): GatedGCNLayer()
          (2): GATv2Conv(48, 6, heads=8)
        )
        (input_choice): InputChoice(n_candidates=3, n_chosen=1, reduction='sum', label='gnn_mixture_choice_group_10')
        (self_attn): SparseGraphAttention(
          (W_k): Linear(in_features=48, out_features=48, bias=True)
          (W_v): Linear(in_features=48, out_features=48, bias=True)
          (W_o): Linear(in_features=48, out_features=48, bias=True)
        )
        (norm1_kv): BatchNorm1d(48, eps=1e-05, momentum=0.1, affine=True, track_running_stats=True)
        (norm1_attn): BatchNorm1d(48, eps=1e-05, momentum=0.1, affine=True, track_running_stats=True)
        (dropout_kv): Dropout(p=0.0, inplace=False)
        (dropout_attn): Dropout(p=0.0, inplace=False)
        (ff_linear1): Linear(in_features=48, out_features=96, bias=True)
        (ff_linear2): Linear(in_features=96, out_features=48, bias=True)
        (act_fn_ff): ReLU()
        (norm2): BatchNorm1d(48, eps=1e-05, momentum=0.1, affine=True, track_running_stats=True)
        (ff_dropout1): Dropout(p=0.0, inplace=False)
        (ff_dropout2): Dropout(p=0.0, inplace=False)
        (edge_processor): Sequential(
          (0): Linear(in_features=48, out_features=48, bias=True)
          (1): ReLU()
          (2): Dropout(p=0.0, inplace=False)
          (3): Linear(in_features=48, out_features=48, bias=True)
          (4): Dropout(p=0.0, inplace=False)
        )
      )
      (11): NASLayer(
        summary: dim_h=48, global_model_type=SparseTransformer, num_heads=8, num_experts=3, routing_mode=nas, is_last_layer=False
        (expert_dropout): Dropout(p=0.3, inplace=False)
        (kv_model): ModuleDict(
          (0): GINEConv(nn=Sequential(
            (0): Linear(48, 48, bias=True)
            (1): ReLU()
            (2): Linear(48, 48, bias=True)
          ))
          (1): GatedGCNLayer()
          (2): GATv2Conv(48, 6, heads=8)
        )
        (input_choice): InputChoice(n_candidates=3, n_chosen=1, reduction='sum', label='gnn_mixture_choice_group_11')
        (self_attn): SparseGraphAttention(
          (W_k): Linear(in_features=48, out_features=48, bias=True)
          (W_v): Linear(in_features=48, out_features=48, bias=True)
          (W_o): Linear(in_features=48, out_features=48, bias=True)
        )
        (norm1_kv): BatchNorm1d(48, eps=1e-05, momentum=0.1, affine=True, track_running_stats=True)
        (norm1_attn): BatchNorm1d(48, eps=1e-05, momentum=0.1, affine=True, track_running_stats=True)
        (dropout_kv): Dropout(p=0.0, inplace=False)
        (dropout_attn): Dropout(p=0.0, inplace=False)
        (ff_linear1): Linear(in_features=48, out_features=96, bias=True)
        (ff_linear2): Linear(in_features=96, out_features=48, bias=True)
        (act_fn_ff): ReLU()
        (norm2): BatchNorm1d(48, eps=1e-05, momentum=0.1, affine=True, track_running_stats=True)
        (ff_dropout1): Dropout(p=0.0, inplace=False)
        (ff_dropout2): Dropout(p=0.0, inplace=False)
        (edge_processor): Sequential(
          (0): Linear(in_features=48, out_features=48, bias=True)
          (1): ReLU()
          (2): Dropout(p=0.0, inplace=False)
          (3): Linear(in_features=48, out_features=48, bias=True)
          (4): Dropout(p=0.0, inplace=False)
        )
      )
      (12): NASLayer(
        summary: dim_h=48, global_model_type=SparseTransformer, num_heads=8, num_experts=3, routing_mode=nas, is_last_layer=False
        (expert_dropout): Dropout(p=0.3, inplace=False)
        (kv_model): ModuleDict(
          (0): GINEConv(nn=Sequential(
            (0): Linear(48, 48, bias=True)
            (1): ReLU()
            (2): Linear(48, 48, bias=True)
          ))
          (1): GatedGCNLayer()
          (2): GATv2Conv(48, 6, heads=8)
        )
        (input_choice): InputChoice(n_candidates=3, n_chosen=1, reduction='sum', label='gnn_mixture_choice_group_12')
        (self_attn): SparseGraphAttention(
          (W_k): Linear(in_features=48, out_features=48, bias=True)
          (W_v): Linear(in_features=48, out_features=48, bias=True)
          (W_o): Linear(in_features=48, out_features=48, bias=True)
        )
        (norm1_kv): BatchNorm1d(48, eps=1e-05, momentum=0.1, affine=True, track_running_stats=True)
        (norm1_attn): BatchNorm1d(48, eps=1e-05, momentum=0.1, affine=True, track_running_stats=True)
        (dropout_kv): Dropout(p=0.0, inplace=False)
        (dropout_attn): Dropout(p=0.0, inplace=False)
        (ff_linear1): Linear(in_features=48, out_features=96, bias=True)
        (ff_linear2): Linear(in_features=96, out_features=48, bias=True)
        (act_fn_ff): ReLU()
        (norm2): BatchNorm1d(48, eps=1e-05, momentum=0.1, affine=True, track_running_stats=True)
        (ff_dropout1): Dropout(p=0.0, inplace=False)
        (ff_dropout2): Dropout(p=0.0, inplace=False)
        (edge_processor): Sequential(
          (0): Linear(in_features=48, out_features=48, bias=True)
          (1): ReLU()
          (2): Dropout(p=0.0, inplace=False)
          (3): Linear(in_features=48, out_features=48, bias=True)
          (4): Dropout(p=0.0, inplace=False)
        )
      )
      (13): NASLayer(
        summary: dim_h=48, global_model_type=SparseTransformer, num_heads=8, num_experts=3, routing_mode=nas, is_last_layer=False
        (expert_dropout): Dropout(p=0.3, inplace=False)
        (kv_model): ModuleDict(
          (0): GINEConv(nn=Sequential(
            (0): Linear(48, 48, bias=True)
            (1): ReLU()
            (2): Linear(48, 48, bias=True)
          ))
          (1): GatedGCNLayer()
          (2): GATv2Conv(48, 6, heads=8)
        )
        (input_choice): InputChoice(n_candidates=3, n_chosen=1, reduction='sum', label='gnn_mixture_choice_group_13')
        (self_attn): SparseGraphAttention(
          (W_k): Linear(in_features=48, out_features=48, bias=True)
          (W_v): Linear(in_features=48, out_features=48, bias=True)
          (W_o): Linear(in_features=48, out_features=48, bias=True)
        )
        (norm1_kv): BatchNorm1d(48, eps=1e-05, momentum=0.1, affine=True, track_running_stats=True)
        (norm1_attn): BatchNorm1d(48, eps=1e-05, momentum=0.1, affine=True, track_running_stats=True)
        (dropout_kv): Dropout(p=0.0, inplace=False)
        (dropout_attn): Dropout(p=0.0, inplace=False)
        (ff_linear1): Linear(in_features=48, out_features=96, bias=True)
        (ff_linear2): Linear(in_features=96, out_features=48, bias=True)
        (act_fn_ff): ReLU()
        (norm2): BatchNorm1d(48, eps=1e-05, momentum=0.1, affine=True, track_running_stats=True)
        (ff_dropout1): Dropout(p=0.0, inplace=False)
        (ff_dropout2): Dropout(p=0.0, inplace=False)
        (edge_processor): Sequential(
          (0): Linear(in_features=48, out_features=48, bias=True)
          (1): ReLU()
          (2): Dropout(p=0.0, inplace=False)
          (3): Linear(in_features=48, out_features=48, bias=True)
          (4): Dropout(p=0.0, inplace=False)
        )
      )
      (14): NASLayer(
        summary: dim_h=48, global_model_type=SparseTransformer, num_heads=8, num_experts=3, routing_mode=nas, is_last_layer=False
        (expert_dropout): Dropout(p=0.3, inplace=False)
        (kv_model): ModuleDict(
          (0): GINEConv(nn=Sequential(
            (0): Linear(48, 48, bias=True)
            (1): ReLU()
            (2): Linear(48, 48, bias=True)
          ))
          (1): GatedGCNLayer()
          (2): GATv2Conv(48, 6, heads=8)
        )
        (input_choice): InputChoice(n_candidates=3, n_chosen=1, reduction='sum', label='gnn_mixture_choice_group_14')
        (self_attn): SparseGraphAttention(
          (W_k): Linear(in_features=48, out_features=48, bias=True)
          (W_v): Linear(in_features=48, out_features=48, bias=True)
          (W_o): Linear(in_features=48, out_features=48, bias=True)
        )
        (norm1_kv): BatchNorm1d(48, eps=1e-05, momentum=0.1, affine=True, track_running_stats=True)
        (norm1_attn): BatchNorm1d(48, eps=1e-05, momentum=0.1, affine=True, track_running_stats=True)
        (dropout_kv): Dropout(p=0.0, inplace=False)
        (dropout_attn): Dropout(p=0.0, inplace=False)
        (ff_linear1): Linear(in_features=48, out_features=96, bias=True)
        (ff_linear2): Linear(in_features=96, out_features=48, bias=True)
        (act_fn_ff): ReLU()
        (norm2): BatchNorm1d(48, eps=1e-05, momentum=0.1, affine=True, track_running_stats=True)
        (ff_dropout1): Dropout(p=0.0, inplace=False)
        (ff_dropout2): Dropout(p=0.0, inplace=False)
        (edge_processor): Sequential(
          (0): Linear(in_features=48, out_features=48, bias=True)
          (1): ReLU()
          (2): Dropout(p=0.0, inplace=False)
          (3): Linear(in_features=48, out_features=48, bias=True)
          (4): Dropout(p=0.0, inplace=False)
        )
      )
      (15): NASLayer(
        summary: dim_h=48, global_model_type=SparseTransformer, num_heads=8, num_experts=3, routing_mode=nas, is_last_layer=False
        (expert_dropout): Dropout(p=0.3, inplace=False)
        (kv_model): ModuleDict(
          (0): GINEConv(nn=Sequential(
            (0): Linear(48, 48, bias=True)
            (1): ReLU()
            (2): Linear(48, 48, bias=True)
          ))
          (1): GatedGCNLayer()
          (2): GATv2Conv(48, 6, heads=8)
        )
        (input_choice): InputChoice(n_candidates=3, n_chosen=1, reduction='sum', label='gnn_mixture_choice_group_15')
        (self_attn): SparseGraphAttention(
          (W_k): Linear(in_features=48, out_features=48, bias=True)
          (W_v): Linear(in_features=48, out_features=48, bias=True)
          (W_o): Linear(in_features=48, out_features=48, bias=True)
        )
        (norm1_kv): BatchNorm1d(48, eps=1e-05, momentum=0.1, affine=True, track_running_stats=True)
        (norm1_attn): BatchNorm1d(48, eps=1e-05, momentum=0.1, affine=True, track_running_stats=True)
        (dropout_kv): Dropout(p=0.0, inplace=False)
        (dropout_attn): Dropout(p=0.0, inplace=False)
        (ff_linear1): Linear(in_features=48, out_features=96, bias=True)
        (ff_linear2): Linear(in_features=96, out_features=48, bias=True)
        (act_fn_ff): ReLU()
        (norm2): BatchNorm1d(48, eps=1e-05, momentum=0.1, affine=True, track_running_stats=True)
        (ff_dropout1): Dropout(p=0.0, inplace=False)
        (ff_dropout2): Dropout(p=0.0, inplace=False)
        (edge_processor): Sequential(
          (0): Linear(in_features=48, out_features=48, bias=True)
          (1): ReLU()
          (2): Dropout(p=0.0, inplace=False)
          (3): Linear(in_features=48, out_features=48, bias=True)
          (4): Dropout(p=0.0, inplace=False)
        )
      )
    )
    (darts_sequential): Sequential(
      (0): NASLayer(
        summary: dim_h=48, global_model_type=SparseTransformer, num_heads=8, num_experts=3, routing_mode=nas, is_last_layer=False
        (expert_dropout): Dropout(p=0.3, inplace=False)
        (kv_model): ModuleDict(
          (0): GINEConv(nn=Sequential(
            (0): Linear(48, 48, bias=True)
            (1): ReLU()
            (2): Linear(48, 48, bias=True)
          ))
          (1): GatedGCNLayer()
          (2): GATv2Conv(48, 6, heads=8)
        )
        (input_choice): InputChoice(n_candidates=3, n_chosen=1, reduction='sum', label='gnn_mixture_choice_group_0')
        (self_attn): SparseGraphAttention(
          (W_k): Linear(in_features=48, out_features=48, bias=True)
          (W_v): Linear(in_features=48, out_features=48, bias=True)
          (W_o): Linear(in_features=48, out_features=48, bias=True)
        )
        (norm1_kv): BatchNorm1d(48, eps=1e-05, momentum=0.1, affine=True, track_running_stats=True)
        (norm1_attn): BatchNorm1d(48, eps=1e-05, momentum=0.1, affine=True, track_running_stats=True)
        (dropout_kv): Dropout(p=0.0, inplace=False)
        (dropout_attn): Dropout(p=0.0, inplace=False)
        (ff_linear1): Linear(in_features=48, out_features=96, bias=True)
        (ff_linear2): Linear(in_features=96, out_features=48, bias=True)
        (act_fn_ff): ReLU()
        (norm2): BatchNorm1d(48, eps=1e-05, momentum=0.1, affine=True, track_running_stats=True)
        (ff_dropout1): Dropout(p=0.0, inplace=False)
        (ff_dropout2): Dropout(p=0.0, inplace=False)
        (edge_processor): Sequential(
          (0): Linear(in_features=48, out_features=48, bias=True)
          (1): ReLU()
          (2): Dropout(p=0.0, inplace=False)
          (3): Linear(in_features=48, out_features=48, bias=True)
          (4): Dropout(p=0.0, inplace=False)
        )
      )
      (1): NASLayer(
        summary: dim_h=48, global_model_type=SparseTransformer, num_heads=8, num_experts=3, routing_mode=nas, is_last_layer=False
        (expert_dropout): Dropout(p=0.3, inplace=False)
        (kv_model): ModuleDict(
          (0): GINEConv(nn=Sequential(
            (0): Linear(48, 48, bias=True)
            (1): ReLU()
            (2): Linear(48, 48, bias=True)
          ))
          (1): GatedGCNLayer()
          (2): GATv2Conv(48, 6, heads=8)
        )
        (input_choice): InputChoice(n_candidates=3, n_chosen=1, reduction='sum', label='gnn_mixture_choice_group_1')
        (self_attn): SparseGraphAttention(
          (W_k): Linear(in_features=48, out_features=48, bias=True)
          (W_v): Linear(in_features=48, out_features=48, bias=True)
          (W_o): Linear(in_features=48, out_features=48, bias=True)
        )
        (norm1_kv): BatchNorm1d(48, eps=1e-05, momentum=0.1, affine=True, track_running_stats=True)
        (norm1_attn): BatchNorm1d(48, eps=1e-05, momentum=0.1, affine=True, track_running_stats=True)
        (dropout_kv): Dropout(p=0.0, inplace=False)
        (dropout_attn): Dropout(p=0.0, inplace=False)
        (ff_linear1): Linear(in_features=48, out_features=96, bias=True)
        (ff_linear2): Linear(in_features=96, out_features=48, bias=True)
        (act_fn_ff): ReLU()
        (norm2): BatchNorm1d(48, eps=1e-05, momentum=0.1, affine=True, track_running_stats=True)
        (ff_dropout1): Dropout(p=0.0, inplace=False)
        (ff_dropout2): Dropout(p=0.0, inplace=False)
        (edge_processor): Sequential(
          (0): Linear(in_features=48, out_features=48, bias=True)
          (1): ReLU()
          (2): Dropout(p=0.0, inplace=False)
          (3): Linear(in_features=48, out_features=48, bias=True)
          (4): Dropout(p=0.0, inplace=False)
        )
      )
      (2): NASLayer(
        summary: dim_h=48, global_model_type=SparseTransformer, num_heads=8, num_experts=3, routing_mode=nas, is_last_layer=False
        (expert_dropout): Dropout(p=0.3, inplace=False)
        (kv_model): ModuleDict(
          (0): GINEConv(nn=Sequential(
            (0): Linear(48, 48, bias=True)
            (1): ReLU()
            (2): Linear(48, 48, bias=True)
          ))
          (1): GatedGCNLayer()
          (2): GATv2Conv(48, 6, heads=8)
        )
        (input_choice): InputChoice(n_candidates=3, n_chosen=1, reduction='sum', label='gnn_mixture_choice_group_2')
        (self_attn): SparseGraphAttention(
          (W_k): Linear(in_features=48, out_features=48, bias=True)
          (W_v): Linear(in_features=48, out_features=48, bias=True)
          (W_o): Linear(in_features=48, out_features=48, bias=True)
        )
        (norm1_kv): BatchNorm1d(48, eps=1e-05, momentum=0.1, affine=True, track_running_stats=True)
        (norm1_attn): BatchNorm1d(48, eps=1e-05, momentum=0.1, affine=True, track_running_stats=True)
        (dropout_kv): Dropout(p=0.0, inplace=False)
        (dropout_attn): Dropout(p=0.0, inplace=False)
        (ff_linear1): Linear(in_features=48, out_features=96, bias=True)
        (ff_linear2): Linear(in_features=96, out_features=48, bias=True)
        (act_fn_ff): ReLU()
        (norm2): BatchNorm1d(48, eps=1e-05, momentum=0.1, affine=True, track_running_stats=True)
        (ff_dropout1): Dropout(p=0.0, inplace=False)
        (ff_dropout2): Dropout(p=0.0, inplace=False)
        (edge_processor): Sequential(
          (0): Linear(in_features=48, out_features=48, bias=True)
          (1): ReLU()
          (2): Dropout(p=0.0, inplace=False)
          (3): Linear(in_features=48, out_features=48, bias=True)
          (4): Dropout(p=0.0, inplace=False)
        )
      )
      (3): NASLayer(
        summary: dim_h=48, global_model_type=SparseTransformer, num_heads=8, num_experts=3, routing_mode=nas, is_last_layer=False
        (expert_dropout): Dropout(p=0.3, inplace=False)
        (kv_model): ModuleDict(
          (0): GINEConv(nn=Sequential(
            (0): Linear(48, 48, bias=True)
            (1): ReLU()
            (2): Linear(48, 48, bias=True)
          ))
          (1): GatedGCNLayer()
          (2): GATv2Conv(48, 6, heads=8)
        )
        (input_choice): InputChoice(n_candidates=3, n_chosen=1, reduction='sum', label='gnn_mixture_choice_group_3')
        (self_attn): SparseGraphAttention(
          (W_k): Linear(in_features=48, out_features=48, bias=True)
          (W_v): Linear(in_features=48, out_features=48, bias=True)
          (W_o): Linear(in_features=48, out_features=48, bias=True)
        )
        (norm1_kv): BatchNorm1d(48, eps=1e-05, momentum=0.1, affine=True, track_running_stats=True)
        (norm1_attn): BatchNorm1d(48, eps=1e-05, momentum=0.1, affine=True, track_running_stats=True)
        (dropout_kv): Dropout(p=0.0, inplace=False)
        (dropout_attn): Dropout(p=0.0, inplace=False)
        (ff_linear1): Linear(in_features=48, out_features=96, bias=True)
        (ff_linear2): Linear(in_features=96, out_features=48, bias=True)
        (act_fn_ff): ReLU()
        (norm2): BatchNorm1d(48, eps=1e-05, momentum=0.1, affine=True, track_running_stats=True)
        (ff_dropout1): Dropout(p=0.0, inplace=False)
        (ff_dropout2): Dropout(p=0.0, inplace=False)
        (edge_processor): Sequential(
          (0): Linear(in_features=48, out_features=48, bias=True)
          (1): ReLU()
          (2): Dropout(p=0.0, inplace=False)
          (3): Linear(in_features=48, out_features=48, bias=True)
          (4): Dropout(p=0.0, inplace=False)
        )
      )
      (4): NASLayer(
        summary: dim_h=48, global_model_type=SparseTransformer, num_heads=8, num_experts=3, routing_mode=nas, is_last_layer=False
        (expert_dropout): Dropout(p=0.3, inplace=False)
        (kv_model): ModuleDict(
          (0): GINEConv(nn=Sequential(
            (0): Linear(48, 48, bias=True)
            (1): ReLU()
            (2): Linear(48, 48, bias=True)
          ))
          (1): GatedGCNLayer()
          (2): GATv2Conv(48, 6, heads=8)
        )
        (input_choice): InputChoice(n_candidates=3, n_chosen=1, reduction='sum', label='gnn_mixture_choice_group_4')
        (self_attn): SparseGraphAttention(
          (W_k): Linear(in_features=48, out_features=48, bias=True)
          (W_v): Linear(in_features=48, out_features=48, bias=True)
          (W_o): Linear(in_features=48, out_features=48, bias=True)
        )
        (norm1_kv): BatchNorm1d(48, eps=1e-05, momentum=0.1, affine=True, track_running_stats=True)
        (norm1_attn): BatchNorm1d(48, eps=1e-05, momentum=0.1, affine=True, track_running_stats=True)
        (dropout_kv): Dropout(p=0.0, inplace=False)
        (dropout_attn): Dropout(p=0.0, inplace=False)
        (ff_linear1): Linear(in_features=48, out_features=96, bias=True)
        (ff_linear2): Linear(in_features=96, out_features=48, bias=True)
        (act_fn_ff): ReLU()
        (norm2): BatchNorm1d(48, eps=1e-05, momentum=0.1, affine=True, track_running_stats=True)
        (ff_dropout1): Dropout(p=0.0, inplace=False)
        (ff_dropout2): Dropout(p=0.0, inplace=False)
        (edge_processor): Sequential(
          (0): Linear(in_features=48, out_features=48, bias=True)
          (1): ReLU()
          (2): Dropout(p=0.0, inplace=False)
          (3): Linear(in_features=48, out_features=48, bias=True)
          (4): Dropout(p=0.0, inplace=False)
        )
      )
      (5): NASLayer(
        summary: dim_h=48, global_model_type=SparseTransformer, num_heads=8, num_experts=3, routing_mode=nas, is_last_layer=False
        (expert_dropout): Dropout(p=0.3, inplace=False)
        (kv_model): ModuleDict(
          (0): GINEConv(nn=Sequential(
            (0): Linear(48, 48, bias=True)
            (1): ReLU()
            (2): Linear(48, 48, bias=True)
          ))
          (1): GatedGCNLayer()
          (2): GATv2Conv(48, 6, heads=8)
        )
        (input_choice): InputChoice(n_candidates=3, n_chosen=1, reduction='sum', label='gnn_mixture_choice_group_5')
        (self_attn): SparseGraphAttention(
          (W_k): Linear(in_features=48, out_features=48, bias=True)
          (W_v): Linear(in_features=48, out_features=48, bias=True)
          (W_o): Linear(in_features=48, out_features=48, bias=True)
        )
        (norm1_kv): BatchNorm1d(48, eps=1e-05, momentum=0.1, affine=True, track_running_stats=True)
        (norm1_attn): BatchNorm1d(48, eps=1e-05, momentum=0.1, affine=True, track_running_stats=True)
        (dropout_kv): Dropout(p=0.0, inplace=False)
        (dropout_attn): Dropout(p=0.0, inplace=False)
        (ff_linear1): Linear(in_features=48, out_features=96, bias=True)
        (ff_linear2): Linear(in_features=96, out_features=48, bias=True)
        (act_fn_ff): ReLU()
        (norm2): BatchNorm1d(48, eps=1e-05, momentum=0.1, affine=True, track_running_stats=True)
        (ff_dropout1): Dropout(p=0.0, inplace=False)
        (ff_dropout2): Dropout(p=0.0, inplace=False)
        (edge_processor): Sequential(
          (0): Linear(in_features=48, out_features=48, bias=True)
          (1): ReLU()
          (2): Dropout(p=0.0, inplace=False)
          (3): Linear(in_features=48, out_features=48, bias=True)
          (4): Dropout(p=0.0, inplace=False)
        )
      )
      (6): NASLayer(
        summary: dim_h=48, global_model_type=SparseTransformer, num_heads=8, num_experts=3, routing_mode=nas, is_last_layer=False
        (expert_dropout): Dropout(p=0.3, inplace=False)
        (kv_model): ModuleDict(
          (0): GINEConv(nn=Sequential(
            (0): Linear(48, 48, bias=True)
            (1): ReLU()
            (2): Linear(48, 48, bias=True)
          ))
          (1): GatedGCNLayer()
          (2): GATv2Conv(48, 6, heads=8)
        )
        (input_choice): InputChoice(n_candidates=3, n_chosen=1, reduction='sum', label='gnn_mixture_choice_group_6')
        (self_attn): SparseGraphAttention(
          (W_k): Linear(in_features=48, out_features=48, bias=True)
          (W_v): Linear(in_features=48, out_features=48, bias=True)
          (W_o): Linear(in_features=48, out_features=48, bias=True)
        )
        (norm1_kv): BatchNorm1d(48, eps=1e-05, momentum=0.1, affine=True, track_running_stats=True)
        (norm1_attn): BatchNorm1d(48, eps=1e-05, momentum=0.1, affine=True, track_running_stats=True)
        (dropout_kv): Dropout(p=0.0, inplace=False)
        (dropout_attn): Dropout(p=0.0, inplace=False)
        (ff_linear1): Linear(in_features=48, out_features=96, bias=True)
        (ff_linear2): Linear(in_features=96, out_features=48, bias=True)
        (act_fn_ff): ReLU()
        (norm2): BatchNorm1d(48, eps=1e-05, momentum=0.1, affine=True, track_running_stats=True)
        (ff_dropout1): Dropout(p=0.0, inplace=False)
        (ff_dropout2): Dropout(p=0.0, inplace=False)
        (edge_processor): Sequential(
          (0): Linear(in_features=48, out_features=48, bias=True)
          (1): ReLU()
          (2): Dropout(p=0.0, inplace=False)
          (3): Linear(in_features=48, out_features=48, bias=True)
          (4): Dropout(p=0.0, inplace=False)
        )
      )
      (7): NASLayer(
        summary: dim_h=48, global_model_type=SparseTransformer, num_heads=8, num_experts=3, routing_mode=nas, is_last_layer=False
        (expert_dropout): Dropout(p=0.3, inplace=False)
        (kv_model): ModuleDict(
          (0): GINEConv(nn=Sequential(
            (0): Linear(48, 48, bias=True)
            (1): ReLU()
            (2): Linear(48, 48, bias=True)
          ))
          (1): GatedGCNLayer()
          (2): GATv2Conv(48, 6, heads=8)
        )
        (input_choice): InputChoice(n_candidates=3, n_chosen=1, reduction='sum', label='gnn_mixture_choice_group_7')
        (self_attn): SparseGraphAttention(
          (W_k): Linear(in_features=48, out_features=48, bias=True)
          (W_v): Linear(in_features=48, out_features=48, bias=True)
          (W_o): Linear(in_features=48, out_features=48, bias=True)
        )
        (norm1_kv): BatchNorm1d(48, eps=1e-05, momentum=0.1, affine=True, track_running_stats=True)
        (norm1_attn): BatchNorm1d(48, eps=1e-05, momentum=0.1, affine=True, track_running_stats=True)
        (dropout_kv): Dropout(p=0.0, inplace=False)
        (dropout_attn): Dropout(p=0.0, inplace=False)
        (ff_linear1): Linear(in_features=48, out_features=96, bias=True)
        (ff_linear2): Linear(in_features=96, out_features=48, bias=True)
        (act_fn_ff): ReLU()
        (norm2): BatchNorm1d(48, eps=1e-05, momentum=0.1, affine=True, track_running_stats=True)
        (ff_dropout1): Dropout(p=0.0, inplace=False)
        (ff_dropout2): Dropout(p=0.0, inplace=False)
        (edge_processor): Sequential(
          (0): Linear(in_features=48, out_features=48, bias=True)
          (1): ReLU()
          (2): Dropout(p=0.0, inplace=False)
          (3): Linear(in_features=48, out_features=48, bias=True)
          (4): Dropout(p=0.0, inplace=False)
        )
      )
      (8): NASLayer(
        summary: dim_h=48, global_model_type=SparseTransformer, num_heads=8, num_experts=3, routing_mode=nas, is_last_layer=False
        (expert_dropout): Dropout(p=0.3, inplace=False)
        (kv_model): ModuleDict(
          (0): GINEConv(nn=Sequential(
            (0): Linear(48, 48, bias=True)
            (1): ReLU()
            (2): Linear(48, 48, bias=True)
          ))
          (1): GatedGCNLayer()
          (2): GATv2Conv(48, 6, heads=8)
        )
        (input_choice): InputChoice(n_candidates=3, n_chosen=1, reduction='sum', label='gnn_mixture_choice_group_8')
        (self_attn): SparseGraphAttention(
          (W_k): Linear(in_features=48, out_features=48, bias=True)
          (W_v): Linear(in_features=48, out_features=48, bias=True)
          (W_o): Linear(in_features=48, out_features=48, bias=True)
        )
        (norm1_kv): BatchNorm1d(48, eps=1e-05, momentum=0.1, affine=True, track_running_stats=True)
        (norm1_attn): BatchNorm1d(48, eps=1e-05, momentum=0.1, affine=True, track_running_stats=True)
        (dropout_kv): Dropout(p=0.0, inplace=False)
        (dropout_attn): Dropout(p=0.0, inplace=False)
        (ff_linear1): Linear(in_features=48, out_features=96, bias=True)
        (ff_linear2): Linear(in_features=96, out_features=48, bias=True)
        (act_fn_ff): ReLU()
        (norm2): BatchNorm1d(48, eps=1e-05, momentum=0.1, affine=True, track_running_stats=True)
        (ff_dropout1): Dropout(p=0.0, inplace=False)
        (ff_dropout2): Dropout(p=0.0, inplace=False)
        (edge_processor): Sequential(
          (0): Linear(in_features=48, out_features=48, bias=True)
          (1): ReLU()
          (2): Dropout(p=0.0, inplace=False)
          (3): Linear(in_features=48, out_features=48, bias=True)
          (4): Dropout(p=0.0, inplace=False)
        )
      )
      (9): NASLayer(
        summary: dim_h=48, global_model_type=SparseTransformer, num_heads=8, num_experts=3, routing_mode=nas, is_last_layer=False
        (expert_dropout): Dropout(p=0.3, inplace=False)
        (kv_model): ModuleDict(
          (0): GINEConv(nn=Sequential(
            (0): Linear(48, 48, bias=True)
            (1): ReLU()
            (2): Linear(48, 48, bias=True)
          ))
          (1): GatedGCNLayer()
          (2): GATv2Conv(48, 6, heads=8)
        )
        (input_choice): InputChoice(n_candidates=3, n_chosen=1, reduction='sum', label='gnn_mixture_choice_group_9')
        (self_attn): SparseGraphAttention(
          (W_k): Linear(in_features=48, out_features=48, bias=True)
          (W_v): Linear(in_features=48, out_features=48, bias=True)
          (W_o): Linear(in_features=48, out_features=48, bias=True)
        )
        (norm1_kv): BatchNorm1d(48, eps=1e-05, momentum=0.1, affine=True, track_running_stats=True)
        (norm1_attn): BatchNorm1d(48, eps=1e-05, momentum=0.1, affine=True, track_running_stats=True)
        (dropout_kv): Dropout(p=0.0, inplace=False)
        (dropout_attn): Dropout(p=0.0, inplace=False)
        (ff_linear1): Linear(in_features=48, out_features=96, bias=True)
        (ff_linear2): Linear(in_features=96, out_features=48, bias=True)
        (act_fn_ff): ReLU()
        (norm2): BatchNorm1d(48, eps=1e-05, momentum=0.1, affine=True, track_running_stats=True)
        (ff_dropout1): Dropout(p=0.0, inplace=False)
        (ff_dropout2): Dropout(p=0.0, inplace=False)
        (edge_processor): Sequential(
          (0): Linear(in_features=48, out_features=48, bias=True)
          (1): ReLU()
          (2): Dropout(p=0.0, inplace=False)
          (3): Linear(in_features=48, out_features=48, bias=True)
          (4): Dropout(p=0.0, inplace=False)
        )
      )
      (10): NASLayer(
        summary: dim_h=48, global_model_type=SparseTransformer, num_heads=8, num_experts=3, routing_mode=nas, is_last_layer=False
        (expert_dropout): Dropout(p=0.3, inplace=False)
        (kv_model): ModuleDict(
          (0): GINEConv(nn=Sequential(
            (0): Linear(48, 48, bias=True)
            (1): ReLU()
            (2): Linear(48, 48, bias=True)
          ))
          (1): GatedGCNLayer()
          (2): GATv2Conv(48, 6, heads=8)
        )
        (input_choice): InputChoice(n_candidates=3, n_chosen=1, reduction='sum', label='gnn_mixture_choice_group_10')
        (self_attn): SparseGraphAttention(
          (W_k): Linear(in_features=48, out_features=48, bias=True)
          (W_v): Linear(in_features=48, out_features=48, bias=True)
          (W_o): Linear(in_features=48, out_features=48, bias=True)
        )
        (norm1_kv): BatchNorm1d(48, eps=1e-05, momentum=0.1, affine=True, track_running_stats=True)
        (norm1_attn): BatchNorm1d(48, eps=1e-05, momentum=0.1, affine=True, track_running_stats=True)
        (dropout_kv): Dropout(p=0.0, inplace=False)
        (dropout_attn): Dropout(p=0.0, inplace=False)
        (ff_linear1): Linear(in_features=48, out_features=96, bias=True)
        (ff_linear2): Linear(in_features=96, out_features=48, bias=True)
        (act_fn_ff): ReLU()
        (norm2): BatchNorm1d(48, eps=1e-05, momentum=0.1, affine=True, track_running_stats=True)
        (ff_dropout1): Dropout(p=0.0, inplace=False)
        (ff_dropout2): Dropout(p=0.0, inplace=False)
        (edge_processor): Sequential(
          (0): Linear(in_features=48, out_features=48, bias=True)
          (1): ReLU()
          (2): Dropout(p=0.0, inplace=False)
          (3): Linear(in_features=48, out_features=48, bias=True)
          (4): Dropout(p=0.0, inplace=False)
        )
      )
      (11): NASLayer(
        summary: dim_h=48, global_model_type=SparseTransformer, num_heads=8, num_experts=3, routing_mode=nas, is_last_layer=False
        (expert_dropout): Dropout(p=0.3, inplace=False)
        (kv_model): ModuleDict(
          (0): GINEConv(nn=Sequential(
            (0): Linear(48, 48, bias=True)
            (1): ReLU()
            (2): Linear(48, 48, bias=True)
          ))
          (1): GatedGCNLayer()
          (2): GATv2Conv(48, 6, heads=8)
        )
        (input_choice): InputChoice(n_candidates=3, n_chosen=1, reduction='sum', label='gnn_mixture_choice_group_11')
        (self_attn): SparseGraphAttention(
          (W_k): Linear(in_features=48, out_features=48, bias=True)
          (W_v): Linear(in_features=48, out_features=48, bias=True)
          (W_o): Linear(in_features=48, out_features=48, bias=True)
        )
        (norm1_kv): BatchNorm1d(48, eps=1e-05, momentum=0.1, affine=True, track_running_stats=True)
        (norm1_attn): BatchNorm1d(48, eps=1e-05, momentum=0.1, affine=True, track_running_stats=True)
        (dropout_kv): Dropout(p=0.0, inplace=False)
        (dropout_attn): Dropout(p=0.0, inplace=False)
        (ff_linear1): Linear(in_features=48, out_features=96, bias=True)
        (ff_linear2): Linear(in_features=96, out_features=48, bias=True)
        (act_fn_ff): ReLU()
        (norm2): BatchNorm1d(48, eps=1e-05, momentum=0.1, affine=True, track_running_stats=True)
        (ff_dropout1): Dropout(p=0.0, inplace=False)
        (ff_dropout2): Dropout(p=0.0, inplace=False)
        (edge_processor): Sequential(
          (0): Linear(in_features=48, out_features=48, bias=True)
          (1): ReLU()
          (2): Dropout(p=0.0, inplace=False)
          (3): Linear(in_features=48, out_features=48, bias=True)
          (4): Dropout(p=0.0, inplace=False)
        )
      )
      (12): NASLayer(
        summary: dim_h=48, global_model_type=SparseTransformer, num_heads=8, num_experts=3, routing_mode=nas, is_last_layer=False
        (expert_dropout): Dropout(p=0.3, inplace=False)
        (kv_model): ModuleDict(
          (0): GINEConv(nn=Sequential(
            (0): Linear(48, 48, bias=True)
            (1): ReLU()
            (2): Linear(48, 48, bias=True)
          ))
          (1): GatedGCNLayer()
          (2): GATv2Conv(48, 6, heads=8)
        )
        (input_choice): InputChoice(n_candidates=3, n_chosen=1, reduction='sum', label='gnn_mixture_choice_group_12')
        (self_attn): SparseGraphAttention(
          (W_k): Linear(in_features=48, out_features=48, bias=True)
          (W_v): Linear(in_features=48, out_features=48, bias=True)
          (W_o): Linear(in_features=48, out_features=48, bias=True)
        )
        (norm1_kv): BatchNorm1d(48, eps=1e-05, momentum=0.1, affine=True, track_running_stats=True)
        (norm1_attn): BatchNorm1d(48, eps=1e-05, momentum=0.1, affine=True, track_running_stats=True)
        (dropout_kv): Dropout(p=0.0, inplace=False)
        (dropout_attn): Dropout(p=0.0, inplace=False)
        (ff_linear1): Linear(in_features=48, out_features=96, bias=True)
        (ff_linear2): Linear(in_features=96, out_features=48, bias=True)
        (act_fn_ff): ReLU()
        (norm2): BatchNorm1d(48, eps=1e-05, momentum=0.1, affine=True, track_running_stats=True)
        (ff_dropout1): Dropout(p=0.0, inplace=False)
        (ff_dropout2): Dropout(p=0.0, inplace=False)
        (edge_processor): Sequential(
          (0): Linear(in_features=48, out_features=48, bias=True)
          (1): ReLU()
          (2): Dropout(p=0.0, inplace=False)
          (3): Linear(in_features=48, out_features=48, bias=True)
          (4): Dropout(p=0.0, inplace=False)
        )
      )
      (13): NASLayer(
        summary: dim_h=48, global_model_type=SparseTransformer, num_heads=8, num_experts=3, routing_mode=nas, is_last_layer=False
        (expert_dropout): Dropout(p=0.3, inplace=False)
        (kv_model): ModuleDict(
          (0): GINEConv(nn=Sequential(
            (0): Linear(48, 48, bias=True)
            (1): ReLU()
            (2): Linear(48, 48, bias=True)
          ))
          (1): GatedGCNLayer()
          (2): GATv2Conv(48, 6, heads=8)
        )
        (input_choice): InputChoice(n_candidates=3, n_chosen=1, reduction='sum', label='gnn_mixture_choice_group_13')
        (self_attn): SparseGraphAttention(
          (W_k): Linear(in_features=48, out_features=48, bias=True)
          (W_v): Linear(in_features=48, out_features=48, bias=True)
          (W_o): Linear(in_features=48, out_features=48, bias=True)
        )
        (norm1_kv): BatchNorm1d(48, eps=1e-05, momentum=0.1, affine=True, track_running_stats=True)
        (norm1_attn): BatchNorm1d(48, eps=1e-05, momentum=0.1, affine=True, track_running_stats=True)
        (dropout_kv): Dropout(p=0.0, inplace=False)
        (dropout_attn): Dropout(p=0.0, inplace=False)
        (ff_linear1): Linear(in_features=48, out_features=96, bias=True)
        (ff_linear2): Linear(in_features=96, out_features=48, bias=True)
        (act_fn_ff): ReLU()
        (norm2): BatchNorm1d(48, eps=1e-05, momentum=0.1, affine=True, track_running_stats=True)
        (ff_dropout1): Dropout(p=0.0, inplace=False)
        (ff_dropout2): Dropout(p=0.0, inplace=False)
        (edge_processor): Sequential(
          (0): Linear(in_features=48, out_features=48, bias=True)
          (1): ReLU()
          (2): Dropout(p=0.0, inplace=False)
          (3): Linear(in_features=48, out_features=48, bias=True)
          (4): Dropout(p=0.0, inplace=False)
        )
      )
      (14): NASLayer(
        summary: dim_h=48, global_model_type=SparseTransformer, num_heads=8, num_experts=3, routing_mode=nas, is_last_layer=False
        (expert_dropout): Dropout(p=0.3, inplace=False)
        (kv_model): ModuleDict(
          (0): GINEConv(nn=Sequential(
            (0): Linear(48, 48, bias=True)
            (1): ReLU()
            (2): Linear(48, 48, bias=True)
          ))
          (1): GatedGCNLayer()
          (2): GATv2Conv(48, 6, heads=8)
        )
        (input_choice): InputChoice(n_candidates=3, n_chosen=1, reduction='sum', label='gnn_mixture_choice_group_14')
        (self_attn): SparseGraphAttention(
          (W_k): Linear(in_features=48, out_features=48, bias=True)
          (W_v): Linear(in_features=48, out_features=48, bias=True)
          (W_o): Linear(in_features=48, out_features=48, bias=True)
        )
        (norm1_kv): BatchNorm1d(48, eps=1e-05, momentum=0.1, affine=True, track_running_stats=True)
        (norm1_attn): BatchNorm1d(48, eps=1e-05, momentum=0.1, affine=True, track_running_stats=True)
        (dropout_kv): Dropout(p=0.0, inplace=False)
        (dropout_attn): Dropout(p=0.0, inplace=False)
        (ff_linear1): Linear(in_features=48, out_features=96, bias=True)
        (ff_linear2): Linear(in_features=96, out_features=48, bias=True)
        (act_fn_ff): ReLU()
        (norm2): BatchNorm1d(48, eps=1e-05, momentum=0.1, affine=True, track_running_stats=True)
        (ff_dropout1): Dropout(p=0.0, inplace=False)
        (ff_dropout2): Dropout(p=0.0, inplace=False)
        (edge_processor): Sequential(
          (0): Linear(in_features=48, out_features=48, bias=True)
          (1): ReLU()
          (2): Dropout(p=0.0, inplace=False)
          (3): Linear(in_features=48, out_features=48, bias=True)
          (4): Dropout(p=0.0, inplace=False)
        )
      )
      (15): NASLayer(
        summary: dim_h=48, global_model_type=SparseTransformer, num_heads=8, num_experts=3, routing_mode=nas, is_last_layer=False
        (expert_dropout): Dropout(p=0.3, inplace=False)
        (kv_model): ModuleDict(
          (0): GINEConv(nn=Sequential(
            (0): Linear(48, 48, bias=True)
            (1): ReLU()
            (2): Linear(48, 48, bias=True)
          ))
          (1): GatedGCNLayer()
          (2): GATv2Conv(48, 6, heads=8)
        )
        (input_choice): InputChoice(n_candidates=3, n_chosen=1, reduction='sum', label='gnn_mixture_choice_group_15')
        (self_attn): SparseGraphAttention(
          (W_k): Linear(in_features=48, out_features=48, bias=True)
          (W_v): Linear(in_features=48, out_features=48, bias=True)
          (W_o): Linear(in_features=48, out_features=48, bias=True)
        )
        (norm1_kv): BatchNorm1d(48, eps=1e-05, momentum=0.1, affine=True, track_running_stats=True)
        (norm1_attn): BatchNorm1d(48, eps=1e-05, momentum=0.1, affine=True, track_running_stats=True)
        (dropout_kv): Dropout(p=0.0, inplace=False)
        (dropout_attn): Dropout(p=0.0, inplace=False)
        (ff_linear1): Linear(in_features=48, out_features=96, bias=True)
        (ff_linear2): Linear(in_features=96, out_features=48, bias=True)
        (act_fn_ff): ReLU()
        (norm2): BatchNorm1d(48, eps=1e-05, momentum=0.1, affine=True, track_running_stats=True)
        (ff_dropout1): Dropout(p=0.0, inplace=False)
        (ff_dropout2): Dropout(p=0.0, inplace=False)
        (edge_processor): Sequential(
          (0): Linear(in_features=48, out_features=48, bias=True)
          (1): ReLU()
          (2): Dropout(p=0.0, inplace=False)
          (3): Linear(in_features=48, out_features=48, bias=True)
          (4): Dropout(p=0.0, inplace=False)
        )
      )
    )
    (post_mp): GNNInductiveNodeHead(
      (layer_post_mp): MLP(
        (model): Sequential(
          (0): GeneralMultiLayer(
            (Layer_0): GeneralLayer(
              (layer): Linear(
                (model): Linear(48, 48, bias=True)
              )
              (post_layer): Sequential(
                (0): ReLU()
              )
            )
            (Layer_1): GeneralLayer(
              (layer): Linear(
                (model): Linear(48, 48, bias=True)
              )
              (post_layer): Sequential(
                (0): ReLU()
              )
            )
          )
          (1): Linear(
            (model): Linear(48, 6, bias=True)
          )
        )
      )
    )
  )
)
2025-08-16 21:53:14,976 - INFO - Number of parameters: 728,630
2025-08-16 21:53:14,976 - INFO - Starting optimized training: 2025-08-16 21:53:14.976178
2025-08-16 21:53:20,388 - INFO - [*] Loaded dataset 'CLUSTER' from 'PyG-GNNBenchmarkDataset':
2025-08-16 21:53:20,388 - INFO -   Data(x=[1406436, 7], edge_index=[2, 51620680], y=[1406436])
…
