…
2025-07-05 04:39:06,778 - INFO - [*] Loaded dataset 'ogbg-molpcba' from 'OGB'
2025-07-05 04:39:06,961 - INFO - Created model type: <class 'torch_geometric.graphgym.model_builder.GraphGymModule'>
2025-07-05 04:39:06,961 - INFO - Inner model type: <class 'graphgps.network.vanilla_model.VanillaModel'>
2025-07-05 04:39:06,961 - INFO - Inner model has get_darts_model: False
2025-07-05 04:39:06,962 - INFO - GraphGymModule(
  (model): VanillaModel(
    (encoder): FeatureEncoder(
      (node_encoder): Concat2NodeEncoder(
        (encoder1): AtomEncoder(
          (atom_embedding_list): ModuleList(
            (0): Embedding(119, 364)
            (1): Embedding(5, 364)
            (2-3): 2 x Embedding(12, 364)
            (4): Embedding(10, 364)
            (5-6): 2 x Embedding(6, 364)
            (7-8): 2 x Embedding(2, 364)
          )
        )
        (encoder2): RWSENodeEncoder(
          (raw_norm): BatchNorm1d(16, eps=1e-05, momentum=0.1, affine=True, track_running_stats=True)
          (pe_encoder): Linear(in_features=16, out_features=20, bias=True)
        )
      )
      (edge_encoder): BondEncoder(
        (bond_embedding_list): ModuleList(
          (0): Embedding(5, 384)
          (1): Embedding(6, 384)
          (2): Embedding(2, 384)
        )
      )
    )
    (layers): Sequential(
      (0): VANLayer(
        summary: dim_h=384, global_model_type=SparseTransformer, heads=4
        (self_attn): SparseGraphAttention(
          (W_k): Linear(in_features=384, out_features=384, bias=True)
          (W_v): Linear(in_features=384, out_features=384, bias=True)
          (W_o): Linear(in_features=384, out_features=384, bias=True)
        )
        (norm1_attn): BatchNorm1d(384, eps=1e-05, momentum=0.1, affine=True, track_running_stats=True)
        (dropout_attn): Dropout(p=0.2, inplace=False)
        (ff_linear1): Linear(in_features=384, out_features=768, bias=True)
        (ff_linear2): Linear(in_features=768, out_features=384, bias=True)
        (act_fn_ff): ReLU()
        (norm2): BatchNorm1d(384, eps=1e-05, momentum=0.1, affine=True, track_running_stats=True)
        (ff_dropout1): Dropout(p=0.2, inplace=False)
        (ff_dropout2): Dropout(p=0.2, inplace=False)
      )
      (1): VANLayer(
        summary: dim_h=384, global_model_type=SparseTransformer, heads=4
        (self_attn): SparseGraphAttention(
          (W_k): Linear(in_features=384, out_features=384, bias=True)
          (W_v): Linear(in_features=384, out_features=384, bias=True)
          (W_o): Linear(in_features=384, out_features=384, bias=True)
        )
        (norm1_attn): BatchNorm1d(384, eps=1e-05, momentum=0.1, affine=True, track_running_stats=True)
        (dropout_attn): Dropout(p=0.2, inplace=False)
        (ff_linear1): Linear(in_features=384, out_features=768, bias=True)
        (ff_linear2): Linear(in_features=768, out_features=384, bias=True)
        (act_fn_ff): ReLU()
        (norm2): BatchNorm1d(384, eps=1e-05, momentum=0.1, affine=True, track_running_stats=True)
        (ff_dropout1): Dropout(p=0.2, inplace=False)
        (ff_dropout2): Dropout(p=0.2, inplace=False)
      )
      (2): VANLayer(
        summary: dim_h=384, global_model_type=SparseTransformer, heads=4
        (self_attn): SparseGraphAttention(
          (W_k): Linear(in_features=384, out_features=384, bias=True)
          (W_v): Linear(in_features=384, out_features=384, bias=True)
          (W_o): Linear(in_features=384, out_features=384, bias=True)
        )
        (norm1_attn): BatchNorm1d(384, eps=1e-05, momentum=0.1, affine=True, track_running_stats=True)
        (dropout_attn): Dropout(p=0.2, inplace=False)
        (ff_linear1): Linear(in_features=384, out_features=768, bias=True)
        (ff_linear2): Linear(in_features=768, out_features=384, bias=True)
        (act_fn_ff): ReLU()
        (norm2): BatchNorm1d(384, eps=1e-05, momentum=0.1, affine=True, track_running_stats=True)
        (ff_dropout1): Dropout(p=0.2, inplace=False)
        (ff_dropout2): Dropout(p=0.2, inplace=False)
      )
      (3): VANLayer(
        summary: dim_h=384, global_model_type=SparseTransformer, heads=4
        (self_attn): SparseGraphAttention(
          (W_k): Linear(in_features=384, out_features=384, bias=True)
          (W_v): Linear(in_features=384, out_features=384, bias=True)
          (W_o): Linear(in_features=384, out_features=384, bias=True)
        )
        (norm1_attn): BatchNorm1d(384, eps=1e-05, momentum=0.1, affine=True, track_running_stats=True)
        (dropout_attn): Dropout(p=0.2, inplace=False)
        (ff_linear1): Linear(in_features=384, out_features=768, bias=True)
        (ff_linear2): Linear(in_features=768, out_features=384, bias=True)
        (act_fn_ff): ReLU()
        (norm2): BatchNorm1d(384, eps=1e-05, momentum=0.1, affine=True, track_running_stats=True)
        (ff_dropout1): Dropout(p=0.2, inplace=False)
        (ff_dropout2): Dropout(p=0.2, inplace=False)
      )
      (4): VANLayer(
        summary: dim_h=384, global_model_type=SparseTransformer, heads=4
        (self_attn): SparseGraphAttention(
          (W_k): Linear(in_features=384, out_features=384, bias=True)
          (W_v): Linear(in_features=384, out_features=384, bias=True)
          (W_o): Linear(in_features=384, out_features=384, bias=True)
        )
        (norm1_attn): BatchNorm1d(384, eps=1e-05, momentum=0.1, affine=True, track_running_stats=True)
        (dropout_attn): Dropout(p=0.2, inplace=False)
        (ff_linear1): Linear(in_features=384, out_features=768, bias=True)
        (ff_linear2): Linear(in_features=768, out_features=384, bias=True)
        (act_fn_ff): ReLU()
        (norm2): BatchNorm1d(384, eps=1e-05, momentum=0.1, affine=True, track_running_stats=True)
        (ff_dropout1): Dropout(p=0.2, inplace=False)
        (ff_dropout2): Dropout(p=0.2, inplace=False)
      )
      (5): VANLayer(
        summary: dim_h=384, global_model_type=SparseTransformer, heads=4
        (self_attn): SparseGraphAttention(
          (W_k): Linear(in_features=384, out_features=384, bias=True)
          (W_v): Linear(in_features=384, out_features=384, bias=True)
          (W_o): Linear(in_features=384, out_features=384, bias=True)
        )
        (norm1_attn): BatchNorm1d(384, eps=1e-05, momentum=0.1, affine=True, track_running_stats=True)
        (dropout_attn): Dropout(p=0.2, inplace=False)
        (ff_linear1): Linear(in_features=384, out_features=768, bias=True)
        (ff_linear2): Linear(in_features=768, out_features=384, bias=True)
        (act_fn_ff): ReLU()
        (norm2): BatchNorm1d(384, eps=1e-05, momentum=0.1, affine=True, track_running_stats=True)
        (ff_dropout1): Dropout(p=0.2, inplace=False)
        (ff_dropout2): Dropout(p=0.2, inplace=False)
      )
      (6): VANLayer(
        summary: dim_h=384, global_model_type=SparseTransformer, heads=4
        (self_attn): SparseGraphAttention(
          (W_k): Linear(in_features=384, out_features=384, bias=True)
          (W_v): Linear(in_features=384, out_features=384, bias=True)
          (W_o): Linear(in_features=384, out_features=384, bias=True)
        )
        (norm1_attn): BatchNorm1d(384, eps=1e-05, momentum=0.1, affine=True, track_running_stats=True)
        (dropout_attn): Dropout(p=0.2, inplace=False)
        (ff_linear1): Linear(in_features=384, out_features=768, bias=True)
        (ff_linear2): Linear(in_features=768, out_features=384, bias=True)
        (act_fn_ff): ReLU()
        (norm2): BatchNorm1d(384, eps=1e-05, momentum=0.1, affine=True, track_running_stats=True)
        (ff_dropout1): Dropout(p=0.2, inplace=False)
        (ff_dropout2): Dropout(p=0.2, inplace=False)
      )
      (7): VANLayer(
        summary: dim_h=384, global_model_type=SparseTransformer, heads=4
        (self_attn): SparseGraphAttention(
          (W_k): Linear(in_features=384, out_features=384, bias=True)
          (W_v): Linear(in_features=384, out_features=384, bias=True)
          (W_o): Linear(in_features=384, out_features=384, bias=True)
        )
        (norm1_attn): BatchNorm1d(384, eps=1e-05, momentum=0.1, affine=True, track_running_stats=True)
        (dropout_attn): Dropout(p=0.2, inplace=False)
        (ff_linear1): Linear(in_features=384, out_features=768, bias=True)
        (ff_linear2): Linear(in_features=768, out_features=384, bias=True)
        (act_fn_ff): ReLU()
        (norm2): BatchNorm1d(384, eps=1e-05, momentum=0.1, affine=True, track_running_stats=True)
        (ff_dropout1): Dropout(p=0.2, inplace=False)
        (ff_dropout2): Dropout(p=0.2, inplace=False)
      )
    )
    (post_mp): GNNGraphHead(
      (layer_post_mp): MLP(
        (model): Sequential(
          (0): Linear(
            (model): Linear(384, 128, bias=True)
          )
        )
      )
    )
  )
)
2025-07-05 04:39:06,964 - INFO - Number of parameters: 8,406,236
2025-07-05 04:39:06,964 - INFO - Starting optimized training: 2025-07-05 04:39:06.964058
2025-07-05 04:39:57,965 - INFO - [*] Loaded dataset 'ogbg-molpcba' from 'OGB':
/data/coml-deepcmb/lady6973/py310_new_venv/lib/python3.9/site-packages/torch_geometric/data/in_memory_da
…
