…
/data/coml-deepcmb/lady6973/py310_new_venv/lib/python3.9/site-packages/nni/nas/nn/pytorch/choice.py:252: UserWarning: "key" is deprecated. Assuming label.
  warnings.warn(f'"key" is deprecated. Assuming label.')
2025-07-11 04:09:16,790 - INFO - Created model type: <class 'torch_geometric.graphgym.model_builder.GraphGymModule'>
2025-07-11 04:09:16,791 - INFO - Inner model type: <class 'graphgps.network.NAS_model.NASModel'>
2025-07-11 04:09:16,791 - INFO - Inner model has get_darts_model: True
2025-07-11 04:09:16,793 - INFO - GraphGymModule(
  (model): NASModel(
    (encoder): FeatureEncoder(
      (node_encoder): Concat2NodeEncoder(
        (encoder1): AtomEncoder(
          (atom_embedding_list): ModuleList(
            (0): Embedding(119, 48)
            (1): Embedding(5, 48)
            (2-3): 2 x Embedding(12, 48)
            (4): Embedding(10, 48)
            (5-6): 2 x Embedding(6, 48)
            (7-8): 2 x Embedding(2, 48)
          )
        )
        (encoder2): RWSENodeEncoder(
          (raw_norm): BatchNorm1d(16, eps=1e-05, momentum=0.1, affine=True, track_running_stats=True)
          (pe_encoder): Linear(in_features=16, out_features=16, bias=True)
        )
      )
      (edge_encoder): BondEncoder(
        (bond_embedding_list): ModuleList(
          (0): Embedding(5, 64)
          (1): Embedding(6, 64)
          (2): Embedding(2, 64)
        )
      )
    )
    (darts_layers): ModuleList(
      (0): NASLayer(
        summary: dim_h=64, global_model_type=Transformer, num_heads=4, num_experts=3, routing_mode=nas, is_last_layer=False
        (expert_dropout): Dropout(p=0.3, inplace=False)
        (kv_model): ModuleDict(
          (0): GatedGCNLayer()
          (1): GINEConv(nn=Sequential(
            (0): Linear(64, 64, bias=True)
            (1): ReLU()
            (2): Linear(64, 64, bias=True)
          ))
          (2): GATv2Conv(64, 16, heads=4)
        )
        (input_choice): InputChoice(n_candidates=3, n_chosen=1, reduction='sum', label='gnn_mixture_choice_group_0')
        (self_attn): MultiheadAttention(
          (out_proj): NonDynamicallyQuantizableLinear(in_features=64, out_features=64, bias=True)
        )
        (norm1_kv): BatchNorm1d(64, eps=1e-05, momentum=0.1, affine=True, track_running_stats=True)
        (norm1_attn): BatchNorm1d(64, eps=1e-05, momentum=0.1, affine=True, track_running_stats=True)
        (dropout_kv): Dropout(p=0.05, inplace=False)
        (dropout_attn): Dropout(p=0.05, inplace=False)
        (ff_linear1): Linear(in_features=64, out_features=128, bias=True)
        (ff_linear2): Linear(in_features=128, out_features=64, bias=True)
        (act_fn_ff): ReLU()
        (norm2): BatchNorm1d(64, eps=1e-05, momentum=0.1, affine=True, track_running_stats=True)
        (ff_dropout1): Dropout(p=0.05, inplace=False)
        (ff_dropout2): Dropout(p=0.05, inplace=False)
      )
      (1): NASLayer(
        summary: dim_h=64, global_model_type=Transformer, num_heads=4, num_experts=3, routing_mode=nas, is_last_layer=False
        (expert_dropout): Dropout(p=0.3, inplace=False)
        (kv_model): ModuleDict(
          (0): GatedGCNLayer()
          (1): GINEConv(nn=Sequential(
            (0): Linear(64, 64, bias=True)
            (1): ReLU()
            (2): Linear(64, 64, bias=True)
          ))
          (2): GATv2Conv(64, 16, heads=4)
        )
        (input_choice): InputChoice(n_candidates=3, n_chosen=1, reduction='sum', label='gnn_mixture_choice_group_1')
        (self_attn): MultiheadAttention(
          (out_proj): NonDynamicallyQuantizableLinear(in_features=64, out_features=64, bias=True)
        )
        (norm1_kv): BatchNorm1d(64, eps=1e-05, momentum=0.1, affine=True, track_running_stats=True)
        (norm1_attn): BatchNorm1d(64, eps=1e-05, momentum=0.1, affine=True, track_running_stats=True)
        (dropout_kv): Dropout(p=0.05, inplace=False)
        (dropout_attn): Dropout(p=0.05, inplace=False)
        (ff_linear1): Linear(in_features=64, out_features=128, bias=True)
        (ff_linear2): Linear(in_features=128, out_features=64, bias=True)
        (act_fn_ff): ReLU()
        (norm2): BatchNorm1d(64, eps=1e-05, momentum=0.1, affine=True, track_running_stats=True)
        (ff_dropout1): Dropout(p=0.05, inplace=False)
        (ff_dropout2): Dropout(p=0.05, inplace=False)
      )
      (2): NASLayer(
        summary: dim_h=64, global_model_type=Transformer, num_heads=4, num_experts=3, routing_mode=nas, is_last_layer=False
        (expert_dropout): Dropout(p=0.3, inplace=False)
        (kv_model): ModuleDict(
          (0): GatedGCNLayer()
          (1): GINEConv(nn=Sequential(
            (0): Linear(64, 64, bias=True)
            (1): ReLU()
            (2): Linear(64, 64, bias=True)
          ))
          (2): GATv2Conv(64, 16, heads=4)
        )
        (input_choice): InputChoice(n_candidates=3, n_chosen=1, reduction='sum', label='gnn_mixture_choice_group_2')
        (self_attn): MultiheadAttention(
          (out_proj): NonDynamicallyQuantizableLinear(in_features=64, out_features=64, bias=True)
        )
        (norm1_kv): BatchNorm1d(64, eps=1e-05, momentum=0.1, affine=True, track_running_stats=True)
        (norm1_attn): BatchNorm1d(64, eps=1e-05, momentum=0.1, affine=True, track_running_stats=True)
        (dropout_kv): Dropout(p=0.05, inplace=False)
        (dropout_attn): Dropout(p=0.05, inplace=False)
        (ff_linear1): Linear(in_features=64, out_features=128, bias=True)
        (ff_linear2): Linear(in_features=128, out_features=64, bias=True)
        (act_fn_ff): ReLU()
        (norm2): BatchNorm1d(64, eps=1e-05, momentum=0.1, affine=True, track_running_stats=True)
        (ff_dropout1): Dropout(p=0.05, inplace=False)
        (ff_dropout2): Dropout(p=0.05, inplace=False)
      )
      (3): NASLayer(
        summary: dim_h=64, global_model_type=Transformer, num_heads=4, num_experts=3, routing_mode=nas, is_last_layer=False
        (expert_dropout): Dropout(p=0.3, inplace=False)
        (kv_model): ModuleDict(
          (0): GatedGCNLayer()
          (1): GINEConv(nn=Sequential(
            (0): Linear(64, 64, bias=True)
            (1): ReLU()
            (2): Linear(64, 64, bias=True)
          ))
          (2): GATv2Conv(64, 16, heads=4)
        )
        (input_choice): InputChoice(n_candidates=3, n_chosen=1, reduction='sum', label='gnn_mixture_choice_group_3')
        (self_attn): MultiheadAttention(
          (out_proj): NonDynamicallyQuantizableLinear(in_features=64, out_features=64, bias=True)
        )
        (norm1_kv): BatchNorm1d(64, eps=1e-05, momentum=0.1, affine=True, track_running_stats=True)
        (norm1_attn): BatchNorm1d(64, eps=1e-05, momentum=0.1, affine=True, track_running_stats=True)
        (dropout_kv): Dropout(p=0.05, inplace=False)
        (dropout_attn): Dropout(p=0.05, inplace=False)
        (ff_linear1): Linear(in_features=64, out_features=128, bias=True)
        (ff_linear2): Linear(in_features=128, out_features=64, bias=True)
        (act_fn_ff): ReLU()
        (norm2): BatchNorm1d(64, eps=1e-05, momentum=0.1, affine=True, track_running_stats=True)
        (ff_dropout1): Dropout(p=0.05, inplace=False)
        (ff_dropout2): Dropout(p=0.05, inplace=False)
      )
      (4): NASLayer(
        summary: dim_h=64, global_model_type=Transformer, num_heads=4, num_experts=3, routing_mode=nas, is_last_layer=False
        (expert_dropout): Dropout(p=0.3, inplace=False)
        (kv_model): ModuleDict(
          (0): GatedGCNLayer()
          (1): GINEConv(nn=Sequential(
            (0): Linear(64, 64, bias=True)
            (1): ReLU()
            (2): Linear(64, 64, bias=True)
          ))
          (2): GATv2Conv(64, 16, heads=4)
        )
        (input_choice): InputChoice(n_candidates=3, n_chosen=1, reduction='sum', label='gnn_mixture_choice_group_4')
        (self_attn): MultiheadAttention(
          (out_proj): NonDynamicallyQuantizableLinear(in_features=64, out_features=64, bias=True)
        )
        (norm1_kv): BatchNorm1d(64, eps=1e-05, momentum=0.1, affine=True, track_running_stats=True)
        (norm1_attn): BatchNorm1d(64, eps=1e-05, momentum=0.1, affine=True, track_running_stats=True)
        (dropout_kv): Dropout(p=0.05, inplace=False)
        (dropout_attn): Dropout(p=0.05, inplace=False)
        (ff_linear1): Linear(in_features=64, out_features=128, bias=True)
        (ff_linear2): Linear(in_features=128, out_features=64, bias=True)
        (act_fn_ff): ReLU()
        (norm2): BatchNorm1d(64, eps=1e-05, momentum=0.1, affine=True, track_running_stats=True)
        (ff_dropout1): Dropout(p=0.05, inplace=False)
        (ff_dropout2): Dropout(p=0.05, inplace=False)
      )
      (5): NASLayer(
        summary: dim_h=64, global_model_type=Transformer, num_heads=4, num_experts=3, routing_mode=nas, is_last_layer=False
        (expert_dropout): Dropout(p=0.3, inplace=False)
        (kv_model): ModuleDict(
          (0): GatedGCNLayer()
          (1): GINEConv(nn=Sequential(
            (0): Linear(64, 64, bias=True)
            (1): ReLU()
            (2): Linear(64, 64, bias=True)
          ))
          (2): GATv2Conv(64, 16, heads=4)
        )
        (input_choice): InputChoice(n_candidates=3, n_chosen=1, reduction='sum', label='gnn_mixture_choice_group_5')
        (self_attn): MultiheadAttention(
          (out_proj): NonDynamicallyQuantizableLinear(in_features=64, out_features=64, bias=True)
        )
        (norm1_kv): BatchNorm1d(64, eps=1e-05, momentum=0.1, affine=True, track_running_stats=True)
        (norm1_attn): BatchNorm1d(64, eps=1e-05, momentum=0.1, affine=True, track_running_stats=True)
        (dropout_kv): Dropout(p=0.05, inplace=False)
        (dropout_attn): Dropout(p=0.05, inplace=False)
        (ff_linear1): Linear(in_features=64, out_features=128, bias=True)
        (ff_linear2): Linear(in_features=128, out_features=64, bias=True)
        (act_fn_ff): ReLU()
        (norm2): BatchNorm1d(64, eps=1e-05, momentum=0.1, affine=True, track_running_stats=True)
        (ff_dropout1): Dropout(p=0.05, inplace=False)
        (ff_dropout2): Dropout(p=0.05, inplace=False)
      )
      (6): NASLayer(
        summary: dim_h=64, global_model_type=Transformer, num_heads=4, num_experts=3, routing_mode=nas, is_last_layer=False
        (expert_dropout): Dropout(p=0.3, inplace=False)
        (kv_model): ModuleDict(
          (0): GatedGCNLayer()
          (1): GINEConv(nn=Sequential(
            (0): Linear(64, 64, bias=True)
            (1): ReLU()
            (2): Linear(64, 64, bias=True)
          ))
          (2): GATv2Conv(64, 16, heads=4)
        )
        (input_choice): InputChoice(n_candidates=3, n_chosen=1, reduction='sum', label='gnn_mixture_choice_group_6')
        (self_attn): MultiheadAttention(
          (out_proj): NonDynamicallyQuantizableLinear(in_features=64, out_features=64, bias=True)
        )
        (norm1_kv): BatchNorm1d(64, eps=1e-05, momentum=0.1, affine=True, track_running_stats=True)
        (norm1_attn): BatchNorm1d(64, eps=1e-05, momentum=0.1, affine=True, track_running_stats=True)
        (dropout_kv): Dropout(p=0.05, inplace=False)
        (dropout_attn): Dropout(p=0.05, inplace=False)
        (ff_linear1): Linear(in_features=64, out_features=128, bias=True)
        (ff_linear2): Linear(in_features=128, out_features=64, bias=True)
        (act_fn_ff): ReLU()
        (norm2): BatchNorm1d(64, eps=1e-05, momentum=0.1, affine=True, track_running_stats=True)
        (ff_dropout1): Dropout(p=0.05, inplace=False)
        (ff_dropout2): Dropout(p=0.05, inplace=False)
      )
      (7): NASLayer(
        summary: dim_h=64, global_model_type=Transformer, num_heads=4, num_experts=3, routing_mode=nas, is_last_layer=False
        (expert_dropout): Dropout(p=0.3, inplace=False)
        (kv_model): ModuleDict(
          (0): GatedGCNLayer()
          (1): GINEConv(nn=Sequential(
            (0): Linear(64, 64, bias=True)
            (1): ReLU()
            (2): Linear(64, 64, bias=True)
          ))
          (2): GATv2Conv(64, 16, heads=4)
        )
        (input_choice): InputChoice(n_candidates=3, n_chosen=1, reduction='sum', label='gnn_mixture_choice_group_7')
        (self_attn): MultiheadAttention(
          (out_proj): NonDynamicallyQuantizableLinear(in_features=64, out_features=64, bias=True)
        )
        (norm1_kv): BatchNorm1d(64, eps=1e-05, momentum=0.1, affine=True, track_running_stats=True)
        (norm1_attn): BatchNorm1d(64, eps=1e-05, momentum=0.1, affine=True, track_running_stats=True)
        (dropout_kv): Dropout(p=0.05, inplace=False)
        (dropout_attn): Dropout(p=0.05, inplace=False)
        (ff_linear1): Linear(in_features=64, out_features=128, bias=True)
        (ff_linear2): Linear(in_features=128, out_features=64, bias=True)
        (act_fn_ff): ReLU()
        (norm2): BatchNorm1d(64, eps=1e-05, momentum=0.1, affine=True, track_running_stats=True)
        (ff_dropout1): Dropout(p=0.05, inplace=False)
        (ff_dropout2): Dropout(p=0.05, inplace=False)
      )
    )
    (darts_sequential): Sequential(
      (0): NASLayer(
        summary: dim_h=64, global_model_type=Transformer, num_heads=4, num_experts=3, routing_mode=nas, is_last_layer=False
        (expert_dropout): Dropout(p=0.3, inplace=False)
        (kv_model): ModuleDict(
          (0): GatedGCNLayer()
          (1): GINEConv(nn=Sequential(
            (0): Linear(64, 64, bias=True)
            (1): ReLU()
            (2): Linear(64, 64, bias=True)
          ))
          (2): GATv2Conv(64, 16, heads=4)
        )
        (input_choice): InputChoice(n_candidates=3, n_chosen=1, reduction='sum', label='gnn_mixture_choice_group_0')
        (self_attn): MultiheadAttention(
          (out_proj): NonDynamicallyQuantizableLinear(in_features=64, out_features=64, bias=True)
        )
        (norm1_kv): BatchNorm1d(64, eps=1e-05, momentum=0.1, affine=True, track_running_stats=True)
        (norm1_attn): BatchNorm1d(64, eps=1e-05, momentum=0.1, affine=True, track_running_stats=True)
        (dropout_kv): Dropout(p=0.05, inplace=False)
        (dropout_attn): Dropout(p=0.05, inplace=False)
        (ff_linear1): Linear(in_features=64, out_features=128, bias=True)
        (ff_linear2): Linear(in_features=128, out_features=64, bias=True)
        (act_fn_ff): ReLU()
        (norm2): BatchNorm1d(64, eps=1e-05, momentum=0.1, affine=True, track_running_stats=True)
        (ff_dropout1): Dropout(p=0.05, inplace=False)
        (ff_dropout2): Dropout(p=0.05, inplace=False)
      )
      (1): NASLayer(
        summary: dim_h=64, global_model_type=Transformer, num_heads=4, num_experts=3, routing_mode=nas, is_last_layer=False
        (expert_dropout): Dropout(p=0.3, inplace=False)
        (kv_model): ModuleDict(
          (0): GatedGCNLayer()
          (1): GINEConv(nn=Sequential(
            (0): Linear(64, 64, bias=True)
            (1): ReLU()
            (2): Linear(64, 64, bias=True)
          ))
          (2): GATv2Conv(64, 16, heads=4)
        )
        (input_choice): InputChoice(n_candidates=3, n_chosen=1, reduction='sum', label='gnn_mixture_choice_group_1')
        (self_attn): MultiheadAttention(
          (out_proj): NonDynamicallyQuantizableLinear(in_features=64, out_features=64, bias=True)
        )
        (norm1_kv): BatchNorm1d(64, eps=1e-05, momentum=0.1, affine=True, track_running_stats=True)
        (norm1_attn): BatchNorm1d(64, eps=1e-05, momentum=0.1, affine=True, track_running_stats=True)
        (dropout_kv): Dropout(p=0.05, inplace=False)
        (dropout_attn): Dropout(p=0.05, inplace=False)
        (ff_linear1): Linear(in_features=64, out_features=128, bias=True)
        (ff_linear2): Linear(in_features=128, out_features=64, bias=True)
        (act_fn_ff): ReLU()
        (norm2): BatchNorm1d(64, eps=1e-05, momentum=0.1, affine=True, track_running_stats=True)
        (ff_dropout1): Dropout(p=0.05, inplace=False)
        (ff_dropout2): Dropout(p=0.05, inplace=False)
      )
      (2): NASLayer(
        summary: dim_h=64, global_model_type=Transformer, num_heads=4, num_experts=3, routing_mode=nas, is_last_layer=False
        (expert_dropout): Dropout(p=0.3, inplace=False)
        (kv_model): ModuleDict(
          (0): GatedGCNLayer()
          (1): GINEConv(nn=Sequential(
            (0): Linear(64, 64, bias=True)
            (1): ReLU()
            (2): Linear(64, 64, bias=True)
          ))
          (2): GATv2Conv(64, 16, heads=4)
        )
        (input_choice): InputChoice(n_candidates=3, n_chosen=1, reduction='sum', label='gnn_mixture_choice_group_2')
        (self_attn): MultiheadAttention(
          (out_proj): NonDynamicallyQuantizableLinear(in_features=64, out_features=64, bias=True)
        )
        (norm1_kv): BatchNorm1d(64, eps=1e-05, momentum=0.1, affine=True, track_running_stats=True)
        (norm1_attn): BatchNorm1d(64, eps=1e-05, momentum=0.1, affine=True, track_running_stats=True)
        (dropout_kv): Dropout(p=0.05, inplace=False)
        (dropout_attn): Dropout(p=0.05, inplace=False)
        (ff_linear1): Linear(in_features=64, out_features=128, bias=True)
        (ff_linear2): Linear(in_features=128, out_features=64, bias=True)
        (act_fn_ff): ReLU()
        (norm2): BatchNorm1d(64, eps=1e-05, momentum=0.1, affine=True, track_running_stats=True)
        (ff_dropout1): Dropout(p=0.05, inplace=False)
        (ff_dropout2): Dropout(p=0.05, inplace=False)
      )
      (3): NASLayer(
        summary: dim_h=64, global_model_type=Transformer, num_heads=4, num_experts=3, routing_mode=nas, is_last_layer=False
        (expert_dropout): Dropout(p=0.3, inplace=False)
        (kv_model): ModuleDict(
          (0): GatedGCNLayer()
          (1): GINEConv(nn=Sequential(
            (0): Linear(64, 64, bias=True)
            (1): ReLU()
            (2): Linear(64, 64, bias=True)
          ))
          (2): GATv2Conv(64, 16, heads=4)
        )
        (input_choice): InputChoice(n_candidates=3, n_chosen=1, reduction='sum', label='gnn_mixture_choice_group_3')
        (self_attn): MultiheadAttention(
          (out_proj): NonDynamicallyQuantizableLinear(in_features=64, out_features=64, bias=True)
        )
        (norm1_kv): BatchNorm1d(64, eps=1e-05, momentum=0.1, affine=True, track_running_stats=True)
        (norm1_attn): BatchNorm1d(64, eps=1e-05, momentum=0.1, affine=True, track_running_stats=True)
        (dropout_kv): Dropout(p=0.05, inplace=False)
        (dropout_attn): Dropout(p=0.05, inplace=False)
        (ff_linear1): Linear(in_features=64, out_features=128, bias=True)
        (ff_linear2): Linear(in_features=128, out_features=64, bias=True)
        (act_fn_ff): ReLU()
        (norm2): BatchNorm1d(64, eps=1e-05, momentum=0.1, affine=True, track_running_stats=True)
        (ff_dropout1): Dropout(p=0.05, inplace=False)
        (ff_dropout2): Dropout(p=0.05, inplace=False)
      )
      (4): NASLayer(
        summary: dim_h=64, global_model_type=Transformer, num_heads=4, num_experts=3, routing_mode=nas, is_last_layer=False
        (expert_dropout): Dropout(p=0.3, inplace=False)
        (kv_model): ModuleDict(
          (0): GatedGCNLayer()
          (1): GINEConv(nn=Sequential(
            (0): Linear(64, 64, bias=True)
            (1): ReLU()
            (2): Linear(64, 64, bias=True)
          ))
          (2): GATv2Conv(64, 16, heads=4)
        )
        (input_choice): InputChoice(n_candidates=3, n_chosen=1, reduction='sum', label='gnn_mixture_choice_group_4')
        (self_attn): MultiheadAttention(
          (out_proj): NonDynamicallyQuantizableLinear(in_features=64, out_features=64, bias=True)
        )
        (norm1_kv): BatchNorm1d(64, eps=1e-05, momentum=0.1, affine=True, track_running_stats=True)
        (norm1_attn): BatchNorm1d(64, eps=1e-05, momentum=0.1, affine=True, track_running_stats=True)
        (dropout_kv): Dropout(p=0.05, inplace=False)
        (dropout_attn): Dropout(p=0.05, inplace=False)
        (ff_linear1): Linear(in_features=64, out_features=128, bias=True)
        (ff_linear2): Linear(in_features=128, out_features=64, bias=True)
        (act_fn_ff): ReLU()
        (norm2): BatchNorm1d(64, eps=1e-05, momentum=0.1, affine=True, track_running_stats=True)
        (ff_dropout1): Dropout(p=0.05, inplace=False)
        (ff_dropout2): Dropout(p=0.05, inplace=False)
      )
      (5): NASLayer(
        summary: dim_h=64, global_model_type=Transformer, num_heads=4, num_experts=3, routing_mode=nas, is_last_layer=False
        (expert_dropout): Dropout(p=0.3, inplace=False)
        (kv_model): ModuleDict(
          (0): GatedGCNLayer()
          (1): GINEConv(nn=Sequential(
            (0): Linear(64, 64, bias=True)
            (1): ReLU()
            (2): Linear(64, 64, bias=True)
          ))
          (2): GATv2Conv(64, 16, heads=4)
        )
        (input_choice): InputChoice(n_candidates=3, n_chosen=1, reduction='sum', label='gnn_mixture_choice_group_5')
        (self_attn): MultiheadAttention(
          (out_proj): NonDynamicallyQuantizableLinear(in_features=64, out_features=64, bias=True)
        )
        (norm1_kv): BatchNorm1d(64, eps=1e-05, momentum=0.1, affine=True, track_running_stats=True)
        (norm1_attn): BatchNorm1d(64, eps=1e-05, momentum=0.1, affine=True, track_running_stats=True)
        (dropout_kv): Dropout(p=0.05, inplace=False)
        (dropout_attn): Dropout(p=0.05, inplace=False)
        (ff_linear1): Linear(in_features=64, out_features=128, bias=True)
        (ff_linear2): Linear(in_features=128, out_features=64, bias=True)
        (act_fn_ff): ReLU()
        (norm2): BatchNorm1d(64, eps=1e-05, momentum=0.1, affine=True, track_running_stats=True)
        (ff_dropout1): Dropout(p=0.05, inplace=False)
        (ff_dropout2): Dropout(p=0.05, inplace=False)
      )
      (6): NASLayer(
        summary: dim_h=64, global_model_type=Transformer, num_heads=4, num_experts=3, routing_mode=nas, is_last_layer=False
        (expert_dropout): Dropout(p=0.3, inplace=False)
        (kv_model): ModuleDict(
          (0): GatedGCNLayer()
          (1): GINEConv(nn=Sequential(
            (0): Linear(64, 64, bias=True)
            (1): ReLU()
            (2): Linear(64, 64, bias=True)
          ))
          (2): GATv2Conv(64, 16, heads=4)
        )
        (input_choice): InputChoice(n_candidates=3, n_chosen=1, reduction='sum', label='gnn_mixture_choice_group_6')
        (self_attn): MultiheadAttention(
          (out_proj): NonDynamicallyQuantizableLinear(in_features=64, out_features=64, bias=True)
        )
        (norm1_kv): BatchNorm1d(64, eps=1e-05, momentum=0.1, affine=True, track_running_stats=True)
        (norm1_attn): BatchNorm1d(64, eps=1e-05, momentum=0.1, affine=True, track_running_stats=True)
        (dropout_kv): Dropout(p=0.05, inplace=False)
        (dropout_attn): Dropout(p=0.05, inplace=False)
        (ff_linear1): Linear(in_features=64, out_features=128, bias=True)
        (ff_linear2): Linear(in_features=128, out_features=64, bias=True)
        (act_fn_ff): ReLU()
        (norm2): BatchNorm1d(64, eps=1e-05, momentum=0.1, affine=True, track_running_stats=True)
        (ff_dropout1): Dropout(p=0.05, inplace=False)
        (ff_dropout2): Dropout(p=0.05, inplace=False)
      )
      (7): NASLayer(
        summary: dim_h=64, global_model_type=Transformer, num_heads=4, num_experts=3, routing_mode=nas, is_last_layer=False
        (expert_dropout): Dropout(p=0.3, inplace=False)
        (kv_model): ModuleDict(
          (0): GatedGCNLayer()
          (1): GINEConv(nn=Sequential(
            (0): Linear(64, 64, bias=True)
            (1): ReLU()
            (2): Linear(64, 64, bias=True)
          ))
          (2): GATv2Conv(64, 16, heads=4)
        )
        (input_choice): InputChoice(n_candidates=3, n_chosen=1, reduction='sum', label='gnn_mixture_choice_group_7')
        (self_attn): MultiheadAttention(
          (out_proj): NonDynamicallyQuantizableLinear(in_features=64, out_features=64, bias=True)
        )
        (norm1_kv): BatchNorm1d(64, eps=1e-05, momentum=0.1, affine=True, track_running_stats=True)
        (norm1_attn): BatchNorm1d(64, eps=1e-05, momentum=0.1, affine=True, track_running_stats=True)
        (dropout_kv): Dropout(p=0.05, inplace=False)
        (dropout_attn): Dropout(p=0.05, inplace=False)
        (ff_linear1): Linear(in_features=64, out_features=128, bias=True)
        (ff_linear2): Linear(in_features=128, out_features=64, bias=True)
        (act_fn_ff): ReLU()
        (norm2): BatchNorm1d(64, eps=1e-05, momentum=0.1, affine=True, track_running_stats=True)
        (ff_dropout1): Dropout(p=0.05, inplace=False)
        (ff_dropout2): Dropout(p=0.05, inplace=False)
      )
    )
    (post_mp): SANGraphHead(
      (FC_layers): ModuleList(
        (0): Linear(in_features=64, out_features=32, bias=True)
        (1): Linear(in_features=32, out_features=16, bias=True)
        (2): Linear(in_features=16, out_features=1, bias=True)
      )
      (activation): ReLU()
    )
  )
)
2025-07-11 04:09:16,798 - INFO - Number of parameters: 616,273
2025-07-11 04:09:16,798 - INFO - Starting optimized training: 2025-07-11 04:09:16.798445
2025-07-11 04:09:22,718 - INFO - [*] Loaded dataset 'ogbg-molhiv' from 'OGB':
/data/coml-deepcmb/lady6973/py310_new_venv/lib/python3.9/site-packages/torch_geo
…
