…
2025-07-05 02:30:12,641 - INFO - Done! Took 00:00:51.99
2025-07-05 02:30:12,666 - INFO - [*] Loaded dataset 'PATTERN' from 'PyG-GNNBenchmarkDataset'
2025-07-05 02:30:12,882 - INFO - Created model type: <class 'torch_geometric.graphgym.model_builder.GraphGymModule'>
2025-07-05 02:30:12,882 - INFO - Inner model type: <class 'graphgps.network.vanilla_model.VanillaModel'>
2025-07-05 02:30:12,882 - INFO - Inner model has get_darts_model: False
2025-07-05 02:30:12,883 - INFO - GraphGymModule(
  (model): VanillaModel(
    (encoder): FeatureEncoder(
      (node_encoder): LapPENodeEncoder(
        (linear_x): Linear(in_features=3, out_features=48, bias=True)
        (linear_A): Linear(in_features=2, out_features=32, bias=True)
        (pe_encoder): Sequential(
          (0): ReLU()
          (1): Linear(in_features=32, out_features=16, bias=True)
          (2): ReLU()
        )
      )
      (edge_encoder): DummyEdgeEncoder(
        (encoder): Embedding(1, 64)
      )
    )
    (layers): Sequential(
      (0): VANLayer(
        summary: dim_h=64, global_model_type=SparseTransformer, heads=4
        (self_attn): SparseGraphAttention(
          (W_k): Linear(in_features=64, out_features=64, bias=True)
          (W_v): Linear(in_features=64, out_features=64, bias=True)
          (W_o): Linear(in_features=64, out_features=64, bias=True)
        )
        (norm1_attn): BatchNorm1d(64, eps=1e-05, momentum=0.1, affine=True, track_running_stats=True)
        (dropout_attn): Dropout(p=0.0, inplace=False)
        (ff_linear1): Linear(in_features=64, out_features=128, bias=True)
        (ff_linear2): Linear(in_features=128, out_features=64, bias=True)
        (act_fn_ff): ReLU()
        (norm2): BatchNorm1d(64, eps=1e-05, momentum=0.1, affine=True, track_running_stats=True)
        (ff_dropout1): Dropout(p=0.0, inplace=False)
        (ff_dropout2): Dropout(p=0.0, inplace=False)
      )
      (1): VANLayer(
        summary: dim_h=64, global_model_type=SparseTransformer, heads=4
        (self_attn): SparseGraphAttention(
          (W_k): Linear(in_features=64, out_features=64, bias=True)
          (W_v): Linear(in_features=64, out_features=64, bias=True)
          (W_o): Linear(in_features=64, out_features=64, bias=True)
        )
        (norm1_attn): BatchNorm1d(64, eps=1e-05, momentum=0.1, affine=True, track_running_stats=True)
        (dropout_attn): Dropout(p=0.0, inplace=False)
        (ff_linear1): Linear(in_features=64, out_features=128, bias=True)
        (ff_linear2): Linear(in_features=128, out_features=64, bias=True)
        (act_fn_ff): ReLU()
        (norm2): BatchNorm1d(64, eps=1e-05, momentum=0.1, affine=True, track_running_stats=True)
        (ff_dropout1): Dropout(p=0.0, inplace=False)
        (ff_dropout2): Dropout(p=0.0, inplace=False)
      )
      (2): VANLayer(
        summary: dim_h=64, global_model_type=SparseTransformer, heads=4
        (self_attn): SparseGraphAttention(
          (W_k): Linear(in_features=64, out_features=64, bias=True)
          (W_v): Linear(in_features=64, out_features=64, bias=True)
          (W_o): Linear(in_features=64, out_features=64, bias=True)
        )
        (norm1_attn): BatchNorm1d(64, eps=1e-05, momentum=0.1, affine=True, track_running_stats=True)
        (dropout_attn): Dropout(p=0.0, inplace=False)
        (ff_linear1): Linear(in_features=64, out_features=128, bias=True)
        (ff_linear2): Linear(in_features=128, out_features=64, bias=True)
        (act_fn_ff): ReLU()
        (norm2): BatchNorm1d(64, eps=1e-05, momentum=0.1, affine=True, track_running_stats=True)
        (ff_dropout1): Dropout(p=0.0, inplace=False)
        (ff_dropout2): Dropout(p=0.0, inplace=False)
      )
      (3): VANLayer(
        summary: dim_h=64, global_model_type=SparseTransformer, heads=4
        (self_attn): SparseGraphAttention(
          (W_k): Linear(in_features=64, out_features=64, bias=True)
          (W_v): Linear(in_features=64, out_features=64, bias=True)
          (W_o): Linear(in_features=64, out_features=64, bias=True)
        )
        (norm1_attn): BatchNorm1d(64, eps=1e-05, momentum=0.1, affine=True, track_running_stats=True)
        (dropout_attn): Dropout(p=0.0, inplace=False)
        (ff_linear1): Linear(in_features=64, out_features=128, bias=True)
        (ff_linear2): Linear(in_features=128, out_features=64, bias=True)
        (act_fn_ff): ReLU()
        (norm2): BatchNorm1d(64, eps=1e-05, momentum=0.1, affine=True, track_running_stats=True)
        (ff_dropout1): Dropout(p=0.0, inplace=False)
        (ff_dropout2): Dropout(p=0.0, inplace=False)
      )
      (4): VANLayer(
        summary: dim_h=64, global_model_type=SparseTransformer, heads=4
        (self_attn): SparseGraphAttention(
          (W_k): Linear(in_features=64, out_features=64, bias=True)
          (W_v): Linear(in_features=64, out_features=64, bias=True)
          (W_o): Linear(in_features=64, out_features=64, bias=True)
        )
        (norm1_attn): BatchNorm1d(64, eps=1e-05, momentum=0.1, affine=True, track_running_stats=True)
        (dropout_attn): Dropout(p=0.0, inplace=False)
        (ff_linear1): Linear(in_features=64, out_features=128, bias=True)
        (ff_linear2): Linear(in_features=128, out_features=64, bias=True)
        (act_fn_ff): ReLU()
        (norm2): BatchNorm1d(64, eps=1e-05, momentum=0.1, affine=True, track_running_stats=True)
        (ff_dropout1): Dropout(p=0.0, inplace=False)
        (ff_dropout2): Dropout(p=0.0, inplace=False)
      )
      (5): VANLayer(
        summary: dim_h=64, global_model_type=SparseTransformer, heads=4
        (self_attn): SparseGraphAttention(
          (W_k): Linear(in_features=64, out_features=64, bias=True)
          (W_v): Linear(in_features=64, out_features=64, bias=True)
          (W_o): Linear(in_features=64, out_features=64, bias=True)
        )
        (norm1_attn): BatchNorm1d(64, eps=1e-05, momentum=0.1, affine=True, track_running_stats=True)
        (dropout_attn): Dropout(p=0.0, inplace=False)
        (ff_linear1): Linear(in_features=64, out_features=128, bias=True)
        (ff_linear2): Linear(in_features=128, out_features=64, bias=True)
        (act_fn_ff): ReLU()
        (norm2): BatchNorm1d(64, eps=1e-05, momentum=0.1, affine=True, track_running_stats=True)
        (ff_dropout1): Dropout(p=0.0, inplace=False)
        (ff_dropout2): Dropout(p=0.0, inplace=False)
      )
      (6): VANLayer(
        summary: dim_h=64, global_model_type=SparseTransformer, heads=4
        (self_attn): SparseGraphAttention(
          (W_k): Linear(in_features=64, out_features=64, bias=True)
          (W_v): Linear(in_features=64, out_features=64, bias=True)
          (W_o): Linear(in_features=64, out_features=64, bias=True)
        )
        (norm1_attn): BatchNorm1d(64, eps=1e-05, momentum=0.1, affine=True, track_running_stats=True)
        (dropout_attn): Dropout(p=0.0, inplace=False)
        (ff_linear1): Linear(in_features=64, out_features=128, bias=True)
        (ff_linear2): Linear(in_features=128, out_features=64, bias=True)
        (act_fn_ff): ReLU()
        (norm2): BatchNorm1d(64, eps=1e-05, momentum=0.1, affine=True, track_running_stats=True)
        (ff_dropout1): Dropout(p=0.0, inplace=False)
        (ff_dropout2): Dropout(p=0.0, inplace=False)
      )
      (7): VANLayer(
        summary: dim_h=64, global_model_type=SparseTransformer, heads=4
        (self_attn): SparseGraphAttention(
          (W_k): Linear(in_features=64, out_features=64, bias=True)
          (W_v): Linear(in_features=64, out_features=64, bias=True)
          (W_o): Linear(in_features=64, out_features=64, bias=True)
        )
        (norm1_attn): BatchNorm1d(64, eps=1e-05, momentum=0.1, affine=True, track_running_stats=True)
        (dropout_attn): Dropout(p=0.0, inplace=False)
        (ff_linear1): Linear(in_features=64, out_features=128, bias=True)
        (ff_linear2): Linear(in_features=128, out_features=64, bias=True)
        (act_fn_ff): ReLU()
        (norm2): BatchNorm1d(64, eps=1e-05, momentum=0.1, affine=True, track_running_stats=True)
        (ff_dropout1): Dropout(p=0.0, inplace=False)
        (ff_dropout2): Dropout(p=0.0, inplace=False)
      )
      (8): VANLayer(
        summary: dim_h=64, global_model_type=SparseTransformer, heads=4
        (self_attn): SparseGraphAttention(
          (W_k): Linear(in_features=64, out_features=64, bias=True)
          (W_v): Linear(in_features=64, out_features=64, bias=True)
          (W_o): Linear(in_features=64, out_features=64, bias=True)
        )
        (norm1_attn): BatchNorm1d(64, eps=1e-05, momentum=0.1, affine=True, track_running_stats=True)
        (dropout_attn): Dropout(p=0.0, inplace=False)
        (ff_linear1): Linear(in_features=64, out_features=128, bias=True)
        (ff_linear2): Linear(in_features=128, out_features=64, bias=True)
        (act_fn_ff): ReLU()
        (norm2): BatchNorm1d(64, eps=1e-05, momentum=0.1, affine=True, track_running_stats=True)
        (ff_dropout1): Dropout(p=0.0, inplace=False)
        (ff_dropout2): Dropout(p=0.0, inplace=False)
      )
      (9): VANLayer(
        summary: dim_h=64, global_model_type=SparseTransformer, heads=4
        (self_attn): SparseGraphAttention(
          (W_k): Linear(in_features=64, out_features=64, bias=True)
          (W_v): Linear(in_features=64, out_features=64, bias=True)
          (W_o): Linear(in_features=64, out_features=64, bias=True)
        )
        (norm1_attn): BatchNorm1d(64, eps=1e-05, momentum=0.1, affine=True, track_running_stats=True)
        (dropout_attn): Dropout(p=0.0, inplace=False)
        (ff_linear1): Linear(in_features=64, out_features=128, bias=True)
        (ff_linear2): Linear(in_features=128, out_features=64, bias=True)
        (act_fn_ff): ReLU()
        (norm2): BatchNorm1d(64, eps=1e-05, momentum=0.1, affine=True, track_running_stats=True)
        (ff_dropout1): Dropout(p=0.0, inplace=False)
        (ff_dropout2): Dropout(p=0.0, inplace=False)
      )
    )
    (post_mp): GNNInductiveNodeHead(
      (layer_post_mp): MLP(
        (model): Sequential(
          (0): GeneralMultiLayer(
            (Layer_0): GeneralLayer(
              (layer): Linear(
                (model): Linear(64, 64, bias=True)
              )
              (post_layer): Sequential(
                (0): ReLU()
              )
            )
            (Layer_1): GeneralLayer(
              (layer): Linear(
                (model): Linear(64, 64, bias=True)
              )
              (post_layer): Sequential(
                (0): ReLU()
              )
            )
          )
          (1): Linear(
            (model): Linear(64, 1, bias=True)
          )
        )
      )
    )
  )
)
2025-07-05 02:30:12,885 - INFO - Number of parameters: 302,385
2025-07-05 02:30:12,885 - INFO - Starting optimized training: 2025-07-05 02:30:12.885938
2025-07-05 02:30:19,800 - INFO - [*] Loaded dataset 'PATTERN' from 'PyG-GNNBenchmarkDataset':
2025-07-05 02:30:19,800 - INFO -   Data(x=[1664491, 3], edge_index=[2, 85099952], y=[1664491])
…
